notebooks/spaceship-titanic.pt (torch, 297767 bytes, 6 tensors)

weight f4 [256, 27]
-0.11418881 0.13811716 -0.033928446 -0.05952846 -0.1300449 -0.0071008913 -0.17519748 0.02312206
-0.111021504 -0.13168952 -0.1358114 0.08506802 0.0807814 -0.16699353 -0.10724841 -0.11542351
-0.11293774 -0.1837125 0.11635399 0.019296223 0.003235754 -0.010520002 -0.044488646 0.052584592
0.0329374 -0.071610905 -0.13973856 -0.0075432695 -0.007934715 0.14715031 0.21607217 -0.35258412
-0.441095 0.06478119 0.1508848 0.21639088 0.16838172 0.056046873 0.1305894 -0.03661943
0.09781707 -0.06266109 -0.17606579 0.14550461 0.008370317 0.14997227 0.18470806 0.069292404
-0.22522764 -0.052185465 0.035495188 0.17858191 -0.018085124 -0.17284697 0.14713341 0.22786397
0.04510652 0.013766204 0.27086627 0.24623223 0.09739974 0.098022945 0.0003311541 -0.0016832663
0.18437842 0.038233288 0.09521394 0.12826422 0.16913731 0.16442983 0.014321842 -0.047741845
0.048304796 -0.14140253 0.1678587 -0.0592644 -0.057619516 -0.08524912 -0.0818615 -0.0071603223
-0.07714505 0.1266542 0.037535265 -0.16066754 0.005956031 -0.1958087 -0.16161013 0.040006746
-0.039515417 0.16379365 -0.07230483 0.07669371 0.08736244 -0.07477454 0.057075705 0.13809493
0.074512385 -0.07923394 -0.07337476 0.10523669 -0.056714658 -0.06352112 0.024053363 -0.20331353
0.047272716 -0.057332613 -0.16879167 0.11328635 0.046921797 0.12981696 -0.114022166 -0.15333295
0.091846235 -0.025883943 0.016000526 -0.06562539 -0.09351201 -0.11789805 0.02328663 0.10789538
-0.11828896 0.17796133 0.12705839 0.14676479 0.095823295 0.013848134 0.18297714 -0.17487893
-0.07336504 -0.14685585 0.023499928 0.082549036 -0.18895425 0.14052244 -0.120884076 0.053979333
-0.1455442 0.1813567 -0.055682328 0.10878157 0.14394335 -0.19066176 0.026898343 0.08273602
-0.1586239 -0.116351105 0.17330208 0.111338854 0.10685283 0.13329345 -0.007855627 0.014091813
0.010357213 0.11431124 0.12894413 0.11353511 0.16718894 0.19680224 0.01355712 0.029011259
0.14721543 0.16893452 -0.044124264 -0.08470629 0.19671257 0.11170193 -0.3564952 -0.22856732
0.06086372 -0.11765569 -0.053477224 0.0065692957 -0.1374076 -0.04440287 0.17256941 0.028275806
0.11060204 0.001978416 -0.027219553 -0.15536422 -0.014691235 -0.10879278 -0.10741374 0.13595574
0.12715538 -0.059127487 -0.17411683 0.023001645 0.02061826 0.19573653 -0.09658187 0.009824913
-0.1607085 -0.10420226 0.07883528 -0.16211179 0.008044379 0.05884221 -0.05374819 -0.041566886
-0.19810848 0.054070134 0.19350004 -0.043820295 -0.111181416 -0.22748268 0.16874161 0.024459433
0.030757343 -0.13021466 -0.07776322 0.2173531 -0.039220084 -0.0055508087 0.22709087 -0.036689024
0.13068506 0.03690525 0.080922976 -0.07386873 -0.13196075 0.0335914 -0.13774309 0.01862333
-0.059873797 -0.10570791 -0.19054683 0.1068208 -0.13747147 -0.008904583 -0.09905174 0.046468396
-0.12650146 0.1859908 0.18534523 0.101941 -0.1310217 0.14196713 -0.0929952 0.110607035
0.1578569 -0.027477035 0.015192828 -0.034258034 -0.1459545 -0.12272052 -0.033505805 0.015858386
0.26689756 -0.14734833 0.088975206 -0.03203752 -0.089859 0.13812356 0.20630737 0.13824673
00000000: d3db e9bd 966e 0d3e 8ef8 0abd 1dd4 73bd
00000010: 7e2a 05be 98ae e8bb f866 33be 796a bd3c
00000020: 3e5f e3bd 9ed9 06be 2512 0bbe 2438 ae3d
00000030: b870 a53d 5a00 2bbe 0ea5 dbbd 2963 ecbd
00000040: e74b e7bd 211f 3cbe 004b ee3d 1d13 9e3c
00000050: f20e 543b 165c 2cbc ba39 36bd f162 573d
00000060: 5ee9 063d bda8 92bd a017 0fbe 882d f7bb
00000070: 9b00 02bc 92ae 163e 0642 5d3e e885 b4be
00000080: 34d7 e1be 00ac 843d 8c81 1a3e 9295 5d3e
00000090: 426c 2c3e 6891 653d 3ab9 053e 41fe 15bd
000000a0: 5154 c83d 7554 80bd 974a 34be 29ff 143e
000000b0: a723 093c 5592 193e 1c24 3d3e 2de9 8d3d
000000c0: 13a2 66be 6dc0 55bd 6763 113d 2dde 363e
000000d0: 4127 94bc ccfe 30be 24aa 163e 2c55 693e
000000e0: 9dc1 383d a58b 613c fcae 8a3e 4d24 7c3e
000000f0: 8479 c73d 41c0 c83d c09e ad39 0ba1 dcba
00000100: b2cd 3c3e 829a 1c3d 87ff c23d b257 033e
00000110: 5532 2d3e 4b60 283e 29a6 6a3c f48c 43bd
00000120: 40db 453d d3cb 10be 27e3 2b3e 3abf 72bd
00000130: 7102 6cbd 1797 aebd 01a7 a7bd 23a1 eabb
00000140: 39fe 9dbd a3b1 013e 94be 193d 0886 24be
00000150: cf2a c33b 1382 48be 207d 25be 1dde 233d
00000160: ebda 21bd 86b9 273e 8e14 94bd 9811 9d3d
00000170: 14eb b23d 6523 99bd 37c8 693d c268 0d3e
00000180: f399 983d 6745 a2bd 8245 96bd 5586 d73d
00000190: a14d 68bd 5c17 82bd 8f0b c53c 6c31 50be
000001a0: 09a1 413d 9ad5 6abd b9d7 2cbe ad02 e83d
000001b0: 1231 403d bdee 043e 7484 e9bd 5003 1dbe
000001c0: e119 bc3d 900a d4bc 8913 833c 9b66 86bd
000001d0: 3a83 bfbd 8874 f1bd 9ac3 be3c 41f8 dc3d
000001e0: 7b41 f2bd 7f3b 363e 981b 023e 8249 163e
000001f0: 013f c43d 49e3 623c 5c5e 3b3e 7613 33be
00000200: 6940 96bd 6161 16be ec82 c03c 780f a93d
00000210: 397d 41be 1de5 0f3e 1292 f7bd 6f19 5d3d
00000220: 8a09 15be 92b5 393e 2713 64bd dfc8 de3d
00000230: e365 133e d63c 43be ea59 dc3c 8171 a93d
00000240: 4e6e 22be 7d49 eebd 1a76 313e a005 e43d
00000250: a8d5 da3d 147e 083e e3b4 00bc 59e1 663c
00000260: 4db1 293c 031c ea3d ee09 043e 1985 e83d
00000270: 9433 2b3e 8786 493e af1e 5e3c 05a9 ed3c
00000280: a4bf 163e 2cfd 2c3e a5bb 34bd 7e7a adbd
00000290: 056f 493e fbc3 e43d 8a86 b6be 8d0d 6abe
000002a0: 3c4c 793d 77f5 f0bd ef0a 5bbd 3f43 d73b
000002b0: 94b4 0cbe c9df 35bd 09b6 303e aaa2 e73c
000002c0: 5383 e23d 50a8 013b 8afb debc cc17 1fbe
000002d0: 81b3 70bc c0ce debd bcfb dbbd fb37 0b3e
000002e0: 0535 023e aa2f 72bd af4b 32be f26d bc3c
000002f0: a0e7 a83c 286f 483e b7cc c5bd acf8 203c
00000300: c590 24be ff67 d5bd 6474 a13d a200 26be
00000310: 92cc 033c 8704 713d 1027 5cbd 0a42 2abd
00000320: f3dc 4abe a578 5d3d e024 463e e97c 33bd
00000330: 15b3 e3bd 38f1 68be 9aca 2c3e 265f c83c
00000340: d3f6 fb3c fe56 05be 5342 9fbd d091 5e3e
00000350: 3da5 20bd 8fe3 b5bb 828a 683e 3b47 16bd
00000360: 4ed2 053e f629 173d f2ba a53d 7d48 97bd
00000370: b820 07be 2397 093d 860c 0dbe f48f 983c
00000380: 3a3e 75bd 647d d8bd b51e 43be ddc4 da3d
00000390: 52c5 0cbe 87e4 11bc a3db cabd a555 3e3d
000003a0: 9989 01be 5f74 3e3e 24cb 3d3e 71c6 d03d
000003b0: 8d2a 06be d55f 113e 4474 bebd f185 e23d
000003c0: 3da5 213e 8517 e1bc 57eb 783c 2752 0cbd
000003d0: 1975 15be e554 fbbd 623d 09bd 72e9 813c
000003e0: cca6 883e 7be2 16be a238 b63d c639 03bd
000003f0: ff07 b8bd 4370 0d3e 3d42 533e 8d90 0d3e

bias f4 [256]
0.027021023 -0.03706878 -0.14538352 -0.08665068 -0.041906223 -0.140684 0.15708804 -0.057829913
-0.08618705 -0.038077716 -0.11365914 0.1492298 0.067419946 -6.792293e-05 0.11245765 0.18919797
0.11975015 -0.1451365 -0.03762378 0.1665558 0.1937683 0.12917666 -0.15922965 0.041868657
-0.14063981 0.01968194 -0.06929468 0.059508055 0.06844488 0.043380883 0.04190214 0.09358811
-0.1866524 0.054424193 -0.08490601 -0.18308686 0.029008957 -0.14736257 0.11141036 0.022561502
0.14921734 -0.15121236 0.056345772 -0.048018318 -0.032716792 -0.060112324 0.028747449 0.0009273979
-0.10877835 -0.09214828 -0.12413852 0.16359645 0.08937912 0.14035423 -0.07392727 -0.07837752
-0.045933 -0.015108869 0.14523305 0.02347345 0.06661149 -0.069140725 0.12137402 -0.13543774
-0.051504694 -0.12389146 0.081612036 0.18670893 -0.12953843 -0.08967361 -0.19251485 -0.17785703
0.09887574 -0.113762595 -0.06590924 -0.14893468 0.00035598327 0.14564346 -0.15286435 -0.031897444
-0.09010393 -0.030828862 -0.08160421 0.04288648 -0.029217653 -0.1111427 -0.18926837 -0.10755916
0.054758746 0.012679754 -0.1329282 0.017364005 -0.11719645 0.14749795 -0.0680144 0.11235904
-0.11131896 -0.060237642 0.17818269 -0.14056039 -0.044965647 -0.09840047 0.038130123 0.11596953
-0.023080315 -0.035595033 0.05271594 -0.10696579 0.08279118 -0.1305138 0.16254944 0.11247321
-0.17128266 -0.0030425382 0.07878812 -0.13632801 -0.038282212 -0.18186003 0.14236927 0.036528714
0.022394413 0.08984425 0.20159996 0.014742152 -0.18653111 -0.042057034 0.09728125 0.08305342
-0.1535625 0.09333791 0.07788595 -0.10933192 -0.1752322 0.029989189 -0.124515824 -0.13725322
0.088284194 -0.061597936 0.07207974 -0.16526158 -0.043111525 -0.18230806 0.06570448 -0.061520733
0.050917815 -0.0057578874 0.04744056 -0.18536836 0.16362391 0.15440483 0.096058324 0.122151986
-0.14870249 0.18107046 -0.104884215 -0.18717021 -0.11935836 0.15666093 -0.094452366 0.13349879
0.12000119 0.088337906 -0.12068111 -0.018084833 0.04961235 -0.16164485 -0.14454009 -0.20274904
-0.038020153 -0.08589356 0.1830992 -0.15013681 0.10693639 -0.07462592 0.09393971 0.095056176
0.12712942 0.057242043 0.058159485 0.105425574 -0.16008186 0.17921427 -0.020657938 0.10815956
-0.10701428 0.008900367 0.11156691 -0.12126696 -0.0016188984 0.06331407 -0.1241493 -0.19294924
-0.13158123 0.09175466 0.0927249 -0.06741632 -0.188971 0.09577346 -0.105499715 0.09566891
0.12781765 0.04625093 -0.02093024 -0.10688035 -0.11752437 -0.065325506 -0.13674101 0.107246116
-0.04052673 0.04642168 0.11799097 0.13158098 -0.099084824 -0.06798102 0.044640888 0.00410651
0.09347615 -0.137645 0.10303905 -0.085208796 -0.17936224 -0.10841313 -0.17318821 -0.1580461
-0.03199846 0.09062984 0.067175984 -0.09009791 -0.024231585 -0.15105247 0.10801084 -0.007891428
0.09181375 0.084594496 0.1430356 -0.025339024 -0.0483923 -0.15943903 0.074281365 0.0060531623
-0.025716688 0.022879735 0.06436043 -0.09507068 -0.20402053 -0.023851203 -0.05174785 0.14717227
-0.07471256 -0.0037101163 0.13155442 -0.05843772 -0.06691766 0.065470986 0.09226855 -0.0011748004
00000000: 315b dd3c 6fd5 17bd 6bdf 14be e975 b1bd
00000010: dca5 2bbd 770f 10be b0db 203e 0fdf 6cbd
00000020: d682 b0bd 61f7 1bbd 20c6 e8bd b2cf 183e
00000030: 7813 8a3d d871 8eb8 3250 e63d 1dbd 413e
00000040: 913f f53d aa9e 14be 651b 1abd 9b8d 2a3e
00000050: 326b 463e e346 043e 190d 23be 787e 2b3d
00000060: e203 10be 053c a13c 5fea 8dbd b8be 733d
00000070: d42c 8c3d 27b0 313d 94a1 2b3d 1fab bf3d
00000080: cf21 3fbe e7eb 5e3d 34e3 adbd 1f7b 3bbe
00000090: 31a4 ed3c 37e6 16be 1d2b e43d e6d2 b83c
000000a0: 6ecc 183e 6ad7 1abe d3ca 663d dbae 44bd
000000b0: 0b02 06bd 5738 76bd c57f eb3c 9f1c 733a
000000c0: 2fc7 debd 3db8 bcbd 563c febd d485 273e
000000d0: 660c b73d 05b9 0f3e 2e67 97bd 6584 a0bd
000000e0: 3e24 3cbd 318b 77bc f9b7 143e 654b c03c
000000f0: 9b6b 883d a799 8dbd f192 f83d 31b0 0abe
00000100: 96f6 52bd ceba fdbd 3624 a73d a030 3f3e
00000110: b9a5 04be cca6 b7bd 9d22 45be 2720 36be
00000120: 5d7f ca3d 5dfc e8bd 6cfb 86bd 5582 18be
00000130: 44a3 ba39 8f23 153e 7988 1cbe e5a6 02bd
00000140: 6988 b8bd cf8c fcbc 1c20 a7bd bca9 2f3d
00000150: dc59 efbc c99e e3bd 91cf 41be fa47 dcbd
00000160: b54a 603d bebe 4f3c 541e 08be f53e 8e3c
00000170: b104 f0bd b409 173e 224b 8bbd 7f1c e63d
00000180: 32fb e3bd bfbb 76bd 8675 363e 10ef 0fbe
00000190: e62d 38bd 3086 c9bd 552e 1c3d 6f81 ed3d
000001a0: ee12 bdbc 19cc 11bd abec 573d e110 dbbd
000001b0: 6c8e a93d 69a5 05be 5c73 263e 5b58 e63d
000001c0: b964 2fbe 5265 47bb aa5b a13d 9299 0bbe
000001d0: cfcd 1cbd 8439 3abe 40c9 113e 229f 153d
000001e0: 7d74 b73c 4300 b83d 3870 4e3e 1189 713c
000001f0: 0302 3fbe ff43 2cbd 643b c73d e917 aa3d
00000200: 7d3f 1dbe f227 bf3d ab82 9f3d 6ae9 dfbd
00000210: 1270 33be e3ab f53c 2702 ffbd 1c8c 0cbe
00000220: 58ce b43d 1e4e 7cbd 8b9e 933d 553a 29be
00000230: b695 30bd f7ae 3abe 1290 863d 2afd 7bbd
00000240: 338f 503d a9ac bcbb 0851 423d 34d1 3dbe
00000250: 078d 273e 4d1c 1e3e 3aba c43d d22a fa3d
00000260: 7745 18be 896a 393e 89cd d6bd 8ca9 3fbe
00000270: 2872 f4bd b96b 203e 3e70 c1bd e8b3 083e
00000280: 2fc3 f53d 81ea b43d a827 f7bd a526 94bc
00000290: 5236 4b3d 3a86 25be 5102 14be 729d 4fbe
000002a0: 05bb 1bbd f6e8 afbd 5b7e 3b3e 77bd 19be
000002b0: 7701 db3d 79d5 98bd 7663 c03d d0ac c23d
000002c0: 372e 023e a276 6a3d a438 6e3d 5de9 d73d
000002d0: 80ec 23be f283 373e d63a a9bc c282 dd3d
000002e0: 4e2a dbbd d8d2 113c 317d e43d d05a f8bd
000002f0: 3731 d4ba cfaa 813d fd41 febd 7c94 45be
00000300: 3bbd 06be dee9 bb3d 8de6 bd3d 9111 8abd
00000310: 9d81 41be e024 c43d 3c10 d8bd 10ee c33d
00000320: a1e2 023e 9d71 3d3d e575 abbc 16e4 dabd
00000330: 9eb0 f0bd 61c9 85bd d605 0cbe daa3 db3d
00000340: 5bff 25bd a924 3e3d 40a5 f13d 2abd 063e
00000350: fcec cabd a239 8bbd 5dd9 363d e78f 863b
00000360: 6c70 bf3d d0f2 0cbe 2306 d33d f381 aebd
00000370: bcaa 37be b407 debd 4058 31be d6d6 21be
00000380: d110 03bd 239c b93d 9093 893d 4185 b8bd
00000390: 5181 c6bc 80ad 1abe ca34 dd3d 0c4b 01bc
000003a0: d908 bc3d e13f ad3d ed77 123e c993 cfbc
000003b0: 0137 46bd fc43 23be d420 983d 9b59 c63b
000003c0: ceab d2bc 486e bb3c 67cf 833d 6bb4 c2bd
000003d0: c2ea 50be 9963 c3bc 8ef5 53bd 54b4 163e
000003e0: e602 99bd 6c25 73bb 34b6 063e 645c 6fbd
000003f0: 200c 89bd a715 863d 4bf7 bc3d c3fb 99ba

weight f4 [256, 256]
0.026544653 0.040151477 -0.003351687 -0.023296168 0.058842223 -0.027643641 -0.06981636 0.06751494
0.052357893 -0.009534499 -0.033430684 0.05743116 -0.03185103 -0.05486261 0.03281083 -0.022071118
-0.01583359 0.020598458 -0.03246679 -0.04286718 -0.056878015 -0.013455609 -0.059320875 -0.010301126
-0.034768455 -0.07393332 -0.020657444 0.015202603 0.063322276 -0.021765787 -0.058380544 0.01014783
-0.008815951 -0.07168912 0.044773296 0.01515698 0.008174306 0.023338582 -0.016132269 0.08238349
-0.0007210095 -0.0077401646 0.014248181 0.05984735 0.033715628 0.032772545 -0.06169914 -0.010973305
-0.009477962 -0.009907639 0.016121924 0.0057556434 -0.06267613 -0.0022484907 -0.042344145 -0.053842977
-0.03307624 -0.029593982 0.0065834485 -0.0010227939 0.020269098 -0.046210077 -0.046257567 0.089511715
-0.0026216633 0.029290803 -0.016371572 0.030626317 -0.032731757 0.04290541 -0.0035438086 0.07141869
0.02180693 0.0146472985 0.023344206 -0.00033801285 -0.0061836047 -0.060483098 0.022420663 -0.013728518
0.005947713 0.055546016 -0.043814935 -0.041418828 -0.03925244 0.04261376 0.0048576333 0.05832235
-0.03530609 0.022761537 -0.06619886 0.04173322 0.020087635 0.013244452 -0.05269577 0.06054078
0.06418707 0.010082353 0.051633608 -0.017866367 0.038578648 -0.039887153 0.008583439 0.02961161
0.028320888 0.04473738 0.010074869 0.02229296 0.047884565 0.027931476 -0.07447938 0.038497772
0.028016314 0.015704634 0.032747608 -0.049324222 0.026872737 0.054526184 0.0158045 0.028967949
-0.054560866 -0.011170957 0.05700001 0.0606515 0.041140866 0.02498326 -0.030897629 0.06440472
-0.004689631 0.06889663 0.01962741 0.03227552 -0.04083977 -0.014909121 0.025866747 0.0024870883
-0.0044618645 -0.0052034575 0.020818735 -0.006986013 -0.034313254 -0.046340264 -0.015853193 -0.027493514
0.0068407706 -0.056127723 -0.023827055 -0.024946107 -0.007520184 -0.026060011 -0.05872902 -0.010101236
-0.038665973 0.01615158 0.0443897 0.05394959 0.029235132 0.08859974 0.016493935 0.042266317
-0.01116857 0.03211809 0.005175292 0.053016573 -0.028065376 -0.025430216 -0.030401131 0.016586866
0.060804397 0.0024375112 0.029319018 -0.046658505 0.031047303 -0.058044232 0.037403192 -0.0056534195
0.07375356 0.027031526 0.0016958523 -0.043570176 0.05259651 0.023941185 0.00028232264 0.022533927
0.04451191 0.0056212414 -0.024563443 0.03363807 -0.058208603 -0.0052363058 -0.03333897 -0.045756724
0.0624298 0.047249183 -0.010944568 0.002047308 0.014818588 0.018834542 -0.007708521 0.017284222
-0.03244987 0.037262853 0.010239237 -0.036117863 0.019462781 0.07467162 0.038575944 0.026208704
0.058404975 0.01384722 -0.004084442 -0.0047380887 -0.04608343 -0.0017270903 0.031628788 -0.022281792
-0.052751027 0.05392914 -0.004770919 -0.013161921 -0.018203394 -0.05225956 0.022701804 0.024701262
0.0011093706 0.0096681435 -0.06364716 -0.04471441 0.05115252 0.0128759155 0.05847657 -0.0360586
-0.027362967 -0.053539135 -0.040258665 0.0588273 0.013322697 -0.044113535 0.0512636 -0.008380412
-0.022794856 0.023579206 0.054901868 0.0679812 -0.01549612 0.053651564 0.04898698 0.021910895
-0.04796755 -0.03009368 -0.054456957 -0.024270885 -0.011194573 -0.001996152 -0.024163935 0.0018651136
00000000: 2c74 d93c e075 243d faa7 5bbb 9bd7 bebc
00000010: 8b04 713d eb74 e2bc e1fb 8ebd 4645 8a3d
00000020: 3b75 563d 9636 1cbc 9dee 08bd f03c 6b3d
00000030: 3a76 02bd 9eb7 60bd a664 063d 7dce b4bc
00000040: 72b5 81bc 19be a83c e6fb 04bd 7f95 2fbd
00000050: ecf8 68bd ea74 5cbc 72fa 72bd 0ec6 28bc
00000060: 5e69 0ebd 5a6a 97bd cd39 a9bc 5714 793c
00000070: 1caf 813d 2a4e b2bc 7020 6fbd 1543 263c
00000080: c770 10bc bfd1 92bd 3464 373d fb54 783c
00000090: 86ed 053c 8e30 bf3c d227 84bc adb8 a83d
000000a0: 2102 3dba 35a1 fdbb 3471 693c 7f22 753d
000000b0: 6619 0a3d 813c 063d 3db8 7cbd 61c9 33bc
000000c0: 7449 1bbc a653 22bc 2012 843c d699 bc3b
000000d0: 585c 80bd 6a5b 13bb 0e71 2dbd 748a 5cbd
000000e0: f47a 07bd 146f f2bc f8b9 d73b 450f 86ba
000000f0: 610b a63c c746 3dbd 9378 3dbd eb51 b73d
00000100: 36d0 2bbb 44f3 ef3c ad1d 86bc 0be4 fa3c
00000110: bc11 06bd 95bd 2f3d 3e3f 68bb f643 923d
00000120: 72a4 b23c 39fb 6f3c 593c bf3c 5137 b1b9
00000130: d69f cabb 20bd 77bd 8aab b73c 94ed 60bc
00000140: 08e5 c23b 3884 633d 4a77 33bd caa6 29bd
00000150: 2bc7 20bd c48b 2e3d c82c 9f3b 6be3 6e3d
00000160: 1e9d 10bd 6776 ba3c 4593 87bd 74f0 2a3d
00000170: d38e a43c 42ff 583c 85d7 57bd 9cf9 773d
00000180: 8374 833d 7430 253c c37d 533d 7d5c 92bc
00000190: a504 1e3d b660 23bd 8da1 0c3c 0c94 f23c
000001a0: 3501 e83c 8b3e 373d 1011 253c ba9f b63c
000001b0: 9b22 443d 8dd0 e43c a588 98bd d7af 1d3d
000001c0: 7882 e53c 01a7 803c 5b22 063d 3208 4abd
000001d0: 3724 dc3c d956 5f3d 7078 813c 314e ed3c
000001e0: 377b 5fbd 6406 37bc d878 693d b56d 783d
000001f0: 5383 283d b2a9 cc3c 061d fdbc 9fe6 833d
00000200: 7aab 99bb ad19 8d3d aac9 a03c 5633 043d
00000210: 9a47 27bd 6345 74bc 80e6 d33c 6bfe 223b
00000220: d534 92bb c481 aabb 0d8c aa3c edea e4bb
00000230: 0e8c 0cbd 4acf 3dbd 8ede 81bc 143a e1bc
00000240: 8b28 e03b 2fe6 65bd f530 c3bc c75b ccbc
00000250: e06b f6bb ce7b d5bc d78d 70bd a87f 25bc
00000260: 3660 1ebd 5150 843c f9d1 353d 3ffa 5c3d
00000270: 847e ef3c c873 b53d 4a1e 873c 721f 2d3d
00000280: 61fc 36bc 428e 033d 7f95 a93b e827 593d
00000290: 5ce9 e5bc 0753 d0bc cb0b f9bc 2ee1 873c
000002a0: 080e 793d a7be 1f3b 702e f03c fd1c 3fbd
000002b0: ea56 fe3c cabf 6dbd 1734 193d 5240 b9bb
000002c0: 1b0c 973d 3871 dd3c 5c47 de3a a476 32bd
000002d0: 706f 573d 4e20 c43c b404 9439 1299 b83c
000002e0: 1f52 363d 6432 b83b 4639 c9bc 13c8 093d
000002f0: 256c 6ebd 5195 abbb 728e 08bd 676b 3bbd
00000300: 64b6 7f3d 5c88 413d d850 33bc 212c 063b
00000310: aac9 723c e64a 9a3c c397 fcbb a497 8d3c
00000320: 28ea 04bd efa0 183d 79c2 273c 53f0 13bd
00000330: 6970 9f3c 6fed 983d cf01 1e3d a3b3 d63c
00000340: 0e3a 6f3d 73df 623c c8d6 85bb f841 9bbb
00000350: fbc1 3cbd 895f e2ba 308d 013d 4e88 b6bc
00000360: 7611 58bd cde4 5c3d 5f55 9cbb 19a5 57bc
00000370: 491f 95bc 1f0e 56bd 22f9 b93c 4d5a ca3c
00000380: 4d68 913a 2267 1e3c 7159 82bd 7526 37bd
00000390: 4e85 513d 81f5 523c 2185 6f3d 2fb2 13bd
000003a0: 4d28 e0bc da4b 5bbd 45e6 24bd e5f4 703d
000003b0: 7147 5a3c 65b0 34bd c8f9 513d ff4d 09bc
000003c0: 47bc babc 2e29 c13c c8e0 603d ba39 8b3d
000003d0: 70e3 7dbc bec1 5b3d 92a6 483d 7a7e b33c
000003e0: 9f79 44bd 0587 f6bc 420e 5fbd bcd3 c6bc
000003f0: 7169 37bc e0d1 02bb 72f3 c5bc d476 f43a

bias f4 [256]
0.0055287327 0.053568874 0.0023450179 0.03411595 0.07472143 -0.024124296 0.027914628 0.026407566
-0.006827971 0.011244475 -0.052915543 0.0117864935 -0.009729855 -0.056398366 0.0053189034 -0.017805126
0.021931442 -0.022364914 -0.057995398 0.010192487 -0.0035130666 0.04904745 0.009471287 -0.019100912
0.022240292 -0.04712927 0.047750983 0.0042048893 0.05388095 0.015582641 -0.05918043 -0.05010705
0.014242641 0.021570968 0.01678705 0.011692935 0.05763758 -0.067287855 0.05036007 -0.049179904
-0.060534894 -0.035955682 -0.038928732 -0.05929506 0.04728005 -0.0005141734 -0.05231271 0.044173837
-0.036169983 0.017035702 0.03953663 0.028978905 -0.029510414 0.0040125125 0.031384166 0.017174015
0.04050899 -0.017843472 -0.029628066 -0.0039205514 0.02300726 -0.013862496 0.065253586 0.07978802
-0.0413853 0.06597086 0.04762074 0.0032504315 -0.04563029 0.038655117 -0.040637877 -0.046557877
0.0056087645 0.025074126 0.054052923 0.020521883 -0.0070542633 0.017530315 -0.05013942 0.028093606
0.02679501 -0.002807146 0.011550265 -0.034029227 0.023766605 0.06192751 0.019179305 0.079795055
0.015115501 0.027896542 -0.02529565 -0.03520245 0.048003238 -0.06752179 -0.0014006201 9.5743264e-05
-0.040436782 -0.019648563 -0.008798271 -0.050093044 0.045654513 -0.018313294 -0.062359404 0.029830297
0.009376341 -0.016468322 -0.0312162 -0.005781841 -0.07845841 0.046179697 0.050606374 0.020212956
0.052194946 0.03530068 -0.049904007 0.0115507385 0.009195717 -0.035703227 -0.021739835 0.035406984
0.016925687 -0.015332743 -0.009449677 0.003368504 0.020061418 0.033272065 -0.02635984 0.0039833705
-0.006953414 0.039512195 -0.008453773 0.0025963206 0.023575718 -0.052963518 0.019563481 -0.052596323
0.019403897 -0.052552853 -0.05452413 -0.008462616 0.01770688 0.029973561 0.01876424 -0.050848078
0.017005146 -0.049649622 0.036017034 -0.061524514 0.013480491 0.001767102 -0.0354038 -0.06349015
-0.0197763 0.009300516 -0.06596255 0.014579783 -0.030050285 0.039438054 0.061912462 -0.017463407
0.0048979963 7.0866015e-05 0.026405461 0.027317565 0.002169878 0.016619934 0.05952449 6.0677416e-05
0.026942624 0.02418093 -0.028983062 -0.037409592 0.04192548 0.029544193 -0.06335836 -0.033263844
-0.058337044 0.020696906 0.0006841206 -0.04486582 -0.047583953 -0.055759232 0.0027291963 -0.005797376
-0.051046554 0.04329445 -0.043312423 0.063681826 -0.04827292 -0.020329596 0.033146188 -0.009581635
0.0052036284 -0.0051523177 -0.0022470416 0.04525159 0.06291732 -0.01804894 -0.02673444 0.025326738
0.018121043 0.055492293 -0.012807356 -0.018541425 0.0074448558 -0.026134009 -0.046600763 0.0053081326
-0.013057783 0.026294181 0.011972644 -0.038107034 0.05098531 0.029394154 -0.03806328 0.034712628
0.032829423 0.02982437 -0.019239858 -0.019989943 -0.06611065 0.08243452 -0.016399464 -0.02978433
0.035374604 0.015079323 -0.031399492 -0.0021060584 0.05363099 0.01206492 0.0093146125 0.015774084
-0.032452695 0.012054633 0.05518715 -0.024280217 -0.028720845 0.05652587 -0.0035524543 -0.06032081
-0.005066445 -0.05885468 -0.007826662 -0.00083049183 0.053057957 -0.019683722 0.039756063 0.019534066
-0.01863441 -0.054180373 -0.0035758847 -0.0014488071 0.01265039 0.041921627 0.052724704 0.028221017
00000000: 5f2a b53b 096b 5b3d dfae 193b 2bbd 0b3d
00000010: 8d07 993d 51a0 c5bc 38ad e43c ae54 d83c
00000020: 2cbd dfbb bf3a 383c f8bd 58bd 231c 413c
00000030: f869 1fbc f901 67bd 324a ae3b 0edc 91bc
00000040: 91a9 b33c a036 b7bc 958c 6dbd 64fe 263c
00000050: 7a3b 66bb fbe5 483d 752d 1b3c 8479 9cbc
00000060: 4631 b63c 9f0a 41bd 8996 433d 2bc9 893b
00000070: 45b2 5c3d 554e 7f3c 2e67 72bd 0d3d 4dbd
00000080: f759 693c 99b5 b03c ff84 893c b993 3f3c
00000090: 6215 6c3d 37ce 89bd 5c46 4e3d de70 49bd
000000a0: 70f3 77bd 4446 13bd bc73 1fbd 60df 72bd
000000b0: baa8 413d 98c9 06ba da45 56bd a0ef 343d
000000c0: fa26 14bd 758e 8b3c 29f1 213d 2b65 ed3c
000000d0: d3bf f1bc 657b 833b af8c 003d 85b0 8c3c
000000e0: c1ec 253d 792c 92bc 8fb6 f2bc f877 80bb
000000f0: b979 bc3c 861f 63bc aca3 853d e767 a33d
00000100: a283 29bd bb1b 873d f70d 433d 3105 553b
00000110: d4e6 3abd d454 1e3d e773 26bd 79b3 3ebd
00000120: bac9 b73b 4168 cd3c 9966 5d3d 821d a83c
00000130: 7327 e7bb bc9b 8f3c fe5e 4dbd 9024 e63c
00000140: 3581 db3c 18f8 37bb 533d 3d3c 3b62 0bbd
00000150: 2fb2 c23c b3a7 7d3d eb1d 9d3c 976b a33d
00000160: 02a7 773c 4a87 e43c d338 cfbc 7230 10bd
00000170: 0b9f 443d dd48 8abd 0395 b7ba c6c9 c838
00000180: 0aa1 25bd 06f6 a0bc a026 10bc 5d2e 4dbd
00000190: 3a00 3b3d c305 96bc 936c 7fbd ab5e f43c
000001a0: 399f 193c 93e8 86bc 1eb9 ffbc 9975 bdbb
000001b0: ceae a0bd ec26 3d3d a148 4f3d a495 a53c
000001c0: 5eca 553d 7297 103d 2568 4cbd 4f3f 3d3c
000001d0: a2a9 163c 8c3d 12bd bd17 b2bc ea06 113d
000001e0: bda7 8a3c 2f36 7bbc d1d2 1abc 1fc2 5c3b
000001f0: d857 a43c 4a48 083d 97f0 d7bc ef86 823b
00000200: 77d9 e3bb 8ad7 213d b281 0abc 0827 2a3b
00000210: dd21 c13c 46f0 58bd 9843 a03c 3e6f 57bd
00000220: ecf4 9e3c a941 57bd b254 5fbd c9a6 0abc
00000230: 050e 913c 1d8b f53c 77b7 993c 1346 50bd
00000240: 604e 8b3c 675d 4bbd 9986 133d 2101 7cbd
00000250: 47dd 5c3c 1b9e e73a 9303 11bd 2007 82bd
00000260: e801 a2bc 3161 183c 6017 87bd 0be0 6e3c
00000270: 042c f6bc cc89 213d ec97 7d3d 6b0f 8fbc
00000280: 5f7f a03b e79d 9438 4450 d83c 16c9 df3c
00000290: 8334 0e3b 8726 883c f4cf 733d e17f 7e38
000002a0: c7b6 dc3c 1617 c63c e36d edbc cd3a 19bd
000002b0: 0dba 2b3d aa06 f23c 07c2 81bd ab3f 08bd
000002c0: d3f2 6ebd 8f8c a93c 8e56 333a 39c5 37bd
000002d0: 64e7 42bd cb63 64bd 51dc 323b eaf7 bdbb
000002e0: 3116 51bd 8555 313d 5e68 31bd 9e6b 823d
000002f0: d3b9 45bd 418a a6bc 4cc4 073d 4afc 1cbc
00000300: 3383 aa3b c6d4 a8bb 1a43 13bb bb59 393d
00000310: ccda 803d 5fdb 93bc 2f02 dbbc 057a cf3c
00000320: 9572 943c e34b 633d f2d5 51bc 30e4 97bc
00000330: faf3 f33b fd16 d6bc 71e0 3ebd d8ef ad3b
00000340: 50f0 55bc e566 d73c e928 443c 1f16 1cbd
00000350: f9d5 503d 02cc f03c 3ee8 1bbd d42e 0e3d
00000360: 2578 063d 3d52 f43c e89c 9dbc f3c1 a3bc
00000370: 0565 87bd 6ed3 a83d 2b58 86bc 44fe f3bc
00000380: f6e4 103d 440f 773c c19c 00bd cc05 0abb
00000390: 2bac 5b3d f1ab 453c 519c 183c a738 813c
000003a0: 1eed 04bd cc80 453c ec0b 623d 4ee7 c6bc
000003b0: fa47 ebbc ac87 673d 4bd0 68bb f412 77bd
000003c0: 6c04 a6bb 9b11 71bd 663b 00bc 5db5 59ba
000003d0: 4d53 593d c23f a1bc 41d7 223d e805 a03c
000003e0: 31a7 98bc 3dec 5dbd 6459 6abb e6e5 bdba
000003f0: 9543 4f3c 03b6 2b3d dcf5 573d c32f e73c

weight f4 [2, 256]
0.09178432 0.41049328 0.04411426 -0.28823343 0.22860457 0.18533355 -0.26334655 0.14971022
0.046586838 0.025523182 -0.03720326 -0.0040906975 0.08996724 0.00559799 0.19700481 -0.046028104
0.09904776 0.012236158 0.036985844 -0.19149674 -0.0041306065 0.38035354 0.40783057 0.19066665
0.23510005 -0.033345446 0.3393982 -0.061749194 0.026459191 -0.38458666 -0.021379534 0.053818986
0.015095725 -0.37978467 0.035877757 0.27341884 0.10141363 -0.040365715 0.12244326 0.2780422
-0.008381657 -0.3137032 -0.31429368 0.0072455932 0.214391 -0.010510002 0.17883907 0.08787475
-0.2596388 0.18797539 0.058869474 0.060804516 0.048247598 -0.04792197 -0.0714071 0.17187217
0.07012919 0.12197013 -0.023747066 -0.05636408 0.053807627 -0.24695586 -0.21959856 0.2113228
-0.03365028 0.17993052 -0.15727799 -0.29596475 0.047919177 -0.27156428 0.01774806 -0.09885622
-0.3138835 0.012106085 -0.17666101 0.30587795 -0.3247377 0.19183041 -0.06185886 0.06861522
-0.13320526 -0.036153156 0.02034082 0.17743169 -0.09836673 0.011581072 -0.023157626 -0.32308266
-0.0645581 0.15305878 -0.31076425 -0.065412745 -0.04032393 -0.10140468 0.09503445 0.10948651
-0.049558062 0.35728893 0.32040423 -0.025061563 -0.13719054 0.14186488 0.04404652 0.03134649
0.03602554 0.1775647 -0.2873378 0.0880009 -0.43956125 -0.002230146 0.31435058 -0.3152833
-0.12253196 -0.005237795 -0.11553264 0.20946062 -0.05611933 0.09637427 0.12551951 -0.23071039
-0.15229358 -0.40917608 -0.0007178421 -0.018380202 -0.10322064 -0.057266228 -0.16971995 -0.29464352
-0.24097125 0.2186705 -0.20507497 0.05492876 0.42019522 -0.20827533 -0.48733577 0.18893011
-0.19251864 0.012507654 -0.012645588 -0.19291857 -0.1910113 0.052055687 0.18399529 -0.25232324
-0.16810793 0.18940794 0.25683105 -0.099662386 0.08429275 -0.2848488 0.06889901 -0.36608288
0.03472338 0.042982813 -0.02117634 0.035520766 0.17273754 0.046156425 0.16156994 0.02379478
-0.3711181 0.07650631 0.15626255 0.08052113 -0.21512851 -0.032809887 0.29998252 0.32892734
0.09183927 -0.06927962 0.02358 0.050017517 0.054032076 -0.011181875 0.008112005 -0.0032418652
0.053454563 -0.16942316 -0.18658724 -0.022856908 -0.2395028 0.0032086656 -0.22238098 0.10356966
-0.021727346 -0.03924003 0.056731913 -0.28792375 -0.069624 0.2109992 0.1474034 -0.021328162
0.14344516 -0.16608812 0.067350045 0.21273203 0.39772362 0.111268684 -0.036803417 0.14095353
0.14680114 0.3641153 0.06552804 -0.05812718 -0.023246635 0.005513995 -0.01368174 0.19580667
-0.4015421 0.07018675 0.18453348 0.017527018 -0.15183805 -0.34021664 -0.06098304 -0.13767815
-0.23824018 -0.27226177 -0.24675956 0.06331118 -0.2399198 0.35449582 0.21574965 -0.035849094
0.13175412 -0.20467678 0.08873297 0.22542942 -0.05179248 -0.051651455 -0.096142605 -0.19586945
-0.02639254 0.15431038 -0.04066084 0.12272523 -0.10213664 0.2325389 0.17309187 0.019527351
-0.21801409 0.06293777 -0.119435444 0.025187729 0.2467273 -0.028070722 -0.0046380726 -0.28128165
0.055345844 -0.09117642 -0.23895597 0.013359105 -0.07433437 -0.13420123 -0.18349405 -0.2849575
00000000: 6bf9 bb3d 2d2c d23e 27b1 343d 5593 93be
00000010: 5117 6a3e 14c8 3d3e 5cd5 86be a34d 193e
00000020: d7d1 3e3d fe15 d13c 7262 18bd 420b 86bb
00000030: bf40 b83d 586f b73b a1bb 493e f787 3cbd
00000040: 8dd9 ca3d 2b7a 483c 787e 173d b917 44be
00000050: 0a5a 87bb b3bd c23e 2bcf d03e 1e3e 433e
00000060: 11be 703e 3c95 08bd 9ac5 ad3e b9ec 7cbd
00000070: f2c0 d83c 8be8 c4be 2224 afbc 4c71 5c3d
00000080: 0f54 773c 2373 c2be 8ef4 123d 8efd 8b3e
00000090: f3b1 cf3d 8556 25bd 88c3 fa3d 8c5b 8e3e
000000a0: 3853 09bc b59d a0be 1aeb a0be 716c ed3b
000000b0: 5089 5b3e 2532 2cbc 9721 373e adf7 b33d
000000c0: 60ef 84be 9f7c 403e 1e21 713d 280e 793d
000000d0: 469f 453d d449 44bd e33d 92bd 42ff 2f3e
000000e0: e59f 8f3d 7acb f93d 3589 c2bc 06de 66bd
000000f0: 6365 5c3d ffe1 7cbe 72de 60be 0165 583e
00000100: e0d4 09bd b53f 383e 7b0d 21be b188 97be
00000110: e646 443d 790a 8bbe 6164 913c 2175 cabd
00000120: 57b5 a0be 9a58 463c a0e6 34be 099c 9c3e
00000130: 0544 a6be 316f 443e b75f 7dbd 2386 8c3d
00000140: f666 08be 5515 14bd cba1 a63c a7b0 353e
00000150: 7f74 c9bd 89be 3d3c 10b5 bdbc 176b a5be
00000160: 0a37 84bd 71bb 1c3e 7e1c 9fbe 1ef7 85bd
00000170: b52a 25bd 42ad cfbd 6ca1 c23d 773a e03d
00000180: 65fd 4abd 93ee b63e 060c a43e e84d cdbc
00000190: ad7b 0cbe 0745 113e 206a 343d 2d65 003d
000001a0: 848f 133d 85d3 353e f11d 93be d139 b43d
000001b0: 2c0e e1be a427 12bb 8ff2 a03e d06c a1be
000001c0: 09f2 fabd cfa1 abbb 609c ecbd d87c 563e
000001d0: 62dd 65bd e05f c53d 3088 003e 583f 6cbe
000001e0: d9f2 1bbe 877f d1be 912d 3cba 1492 96bc
000001f0: 5865 d3bd fe8f 6abd 11cb 2dbe 84db 96be
00000200: 2bc1 76be 29eb 5f3e 2cff 51be fbfc 603d
00000210: d423 d73e 2146 55be 1384 f9be e576 413e
00000220: 9b23 45be e7ec 4c3c 712f 4fbc 728c 45be
00000230: 7798 43be 5838 553d 4369 3c3e 8330 81be
00000240: 7c24 2cbe 28f4 413e 5c7f 833e cb1b ccbd
00000250: ada1 ac3d b4d7 91be ed1a 8d3d 376f bbbe
00000260: 1a3a 0e3d bf0e 303d 017a adbc 397e 113d
00000270: 1ce2 303e 850e 3d3d 9772 253e 45ed c23c
00000280: 3103 bebe 57af 9c3d 4a03 203e 43e8 a43d
00000290: a64a 5cbe a963 06bd 4f97 993e 2a69 a83e
000002a0: 3a16 bc3d 79e2 8dbd d82a c13c 2bdf 4c3d
000002b0: bd50 5d3d 2f34 37bc 37e8 043c 7975 54bb
000002c0: 2cf3 5a3d 447d 2dbe ba10 3fbe 693e bbbc
000002d0: 3940 75be 7a48 523b d7b7 63be 541c d43d
000002e0: 8cfd b1bc 27ba 20bd b95f 683d be6a 93be
000002f0: 0797 8ebd 2d10 583e ebf0 163e 66b8 aebc
00000300: 4ae3 123e 0113 2abe d2ee 893d 6dd6 593e
00000310: 6ea2 cb3e d6e0 e33d 2ebf 16bd 1f56 103e
00000320: 0a53 163e 526d ba3e 9133 863d c416 6ebd
00000330: ba6f bebc beae b43b 6029 60bc 8b81 483e
00000340: ed96 cdbe 12be 8f3d 58f6 3c3e d294 8f3c
00000350: 6f7b 1bbe e030 aebe 5ac9 79bd 80fb 0cbe
00000360: 3cf5 73be e565 8bbe 8aae 7cbe 4ba9 813d
00000370: 89ad 75be 7a80 b53e 7aed 5c3e 80d6 12bd
00000380: 8dea 063e ca96 51be a2b9 b53d f8d6 663e
00000390: 5a24 54bd 7a90 53bd 6ae6 c4bd 0092 48be
000003a0: 2b35 d8bc 8a03 1e3e fb8b 26bd 5e57 fb3d
000003b0: 042d d1bd ad1e 6e3e ff3e 313e d3f7 9f3c
000003c0: 163f 5fbe 84e5 803d 929a f4bd 7f56 ce3c
000003d0: 15a6 7c3e 92f4 e5bc f9fa 97bb 2604 90be
000003e0: 53b2 623d b4ba babd e0b0 74be 26e0 5a3c
000003f0: 9e3c 98bd 0c6c 09be dde5 3bbe f3e5 91be

bias f4 [2]
-0.030509736 0.06388823
00000000: 8eef f9bc d5d7 823d
