notebooks/spaceship-titanic.pt (torch, 561587 bytes, 8 tensors)

weight f4 [256, 27]
0	0x3e39c125	0.18140085
1	0x3c35a219	0.01108601
2	0xbd2a5e99	-0.04159412
3	0x3dd25703	0.102705024
4	0x3d14023c	0.036134943
5	0x3ddbb5f0	0.10728061
6	0x3cf822f6	0.030290108
7	0x3d192220	0.03738606
8	0xbd7cf963	-0.06176127
9	0x3da68d5b	0.0813243
10	0x3e08af9c	0.1334824
11	0x3daeb278	0.08530134
12	0xbe23088a	-0.15921226
13	0x3d39244d	0.045200635
14	0x3d0de43b	0.034641486
15	0xbdac1a20	-0.084034204
16	0x3d5e4af0	0.054270685
17	0xbd42e098	-0.04757747
18	0x3c8c54f8	0.01713036
19	0x3dd36e3e	0.103237614
20	0xbb375f80	-0.0027980506
21	0x3e2336c8	0.15938866
22	0xbe0f0c82	-0.13969615
23	0xbe08bfc3	-0.13354401
24	0x3dafa9da	0.085773185
25	0x3d940c5f	0.07228922
26	0x3d0cbe64	0.03436126
27	0xbde2465f	-0.110485785
28	0xbd99f2d5	-0.0751702
29	0xbbbf1279	-0.0058310595
30	0xbda4a548	-0.080393374
31	0x3ccc3b6c	0.024930678
32	0xbdd69a68	-0.104786694
33	0xbc8b91b8	-0.017037258
34	0xbe17a5d3	-0.1480935
35	0xbde35caf	-0.11101662
36	0xbdc64c05	-0.09682468
37	0xbd0ac1e2	-0.033876307
38	0xbe24b160	-0.16083288
39	0x3e2f56a7	0.17122899
40	0x3e29a25b	0.1656584
41	0x3e38f04d	0.18060417
42	0xbd396b15	-0.045268137
43	0x3e1bc74a	0.15212741
44	0xbd588486	-0.05286076
45	0xbc23b483	-0.009991768
46	0xbdeca96d	-0.11555753
47	0x3e2ac745	0.16677578
48	0x3c7eca38	0.015551142
49	0xbd7f8f2a	-0.06239239
50	0x3cb94c60	0.022619426
51	0xbdb5c510	-0.08875477
52	0xbe3f5ca5	-0.18687685
53	0xbdff260e	-0.1245843
54	0xbe08c553	-0.13356523
55	0xbd30b107	-0.043137576
56	0xbddbe3bf	-0.107367985
57	0x3e1e8dd1	0.15483786
58	0x3d512ddc	0.051069126
59	0xbdf60ac9	-0.12013776
60	0x3da0c2f2	0.07849683
61	0x3aba4f80	0.0014214367
62	0xbd066a33	-0.032816123
63	0x395c82af	0.00021029518
64	0x3d81a506	0.06330304
65	0x3e1098f1	0.14120843
66	0xbe1ac906	-0.15115747
67	0xbcff0074	-0.031128146
68	0xbdfaecc2	-0.12252189
69	0x3d971a66	0.07378082
70	0x3d4e25d5	0.05032905
71	0xbdc88c75	-0.09792415
72	0xbd94d5bf	-0.07267331
73	0x3dbea647	0.09309059
74	0x3d47b202	0.048753746
75	0x3e35e2ce	0.177623
76	0xbe0cb005	-0.13739021
77	0xbd0f58a3	-0.03499664
78	0x3df23464	0.11826399
79	0x3c0d7464	0.008633707
80	0xbd5ae215	-0.053438265
81	0x3e2ae9c6	0.1669074
82	0x3db0f4e3	0.086404584
83	0xbe2a1ec6	-0.16613302
84	0xbc300440	-0.010743201
85	0xba8217e8	-0.0009925338
86	0xbe3128ea	-0.17300764
87	0xbdbd88fb	-0.092546426
88	0xbc8b7d43	-0.017027503
89	0xbdbd1299	-0.09232063
90	0xbdd2295a	-0.102617934
91	0x3de46c80	0.11153507
92	0xbde1c4c4	-0.11023858
93	0x3d7aef6a	0.06126348
94	0x3e25fc9a	0.16209641
95	0x3e1702a2	0.14747098
96	0x3ce6ed4a	0.02818932
97	0xbdb268ae	-0.08711372
98	0xbd66e668	-0.056372076
99	0x3df8ec70	0.12154472
100	0x3dbca89c	0.09211847
101	0x3d82b204	0.0638161
102	0x3dbeb23e	0.09311341
103	0x3c97400a	0.018463153
104	0xbdb2ec2e	-0.08736454
105	0xbdad0f6d	-0.08450208
106	0xbdbae833	-0.0912632
107	0x3e09b70d	0.13448735
108	0xbd29e83e	-0.04148125
109	0x3de4241c	0.111397
110	0xbc1a1798	-0.009405039
111	0xbde328c9	-0.110917635
112	0x3e2c61fb	0.16834252
113	0xbe3f0e9c	-0.18657917
114	0xbde8b8e7	-0.11363392
115	0xbd8844f7	-0.06653779
116	0x3d2f5545	0.04280593
117	0x3e0a7dea	0.13524595
118	0xbd48dd23	-0.049039017
119	0xbdec73e2	-0.115455404
120	0x3d9ac57f	0.07557201
121	0xbc35e124	-0.011101041
122	0x3ccb3cf5	0.02480934
123	0x3ddbd969	0.10734827
124	0x3e0fa2b9	0.14026918
125	0xbba4dae9	-0.005030979
126	0xbdccb396	-0.09995191
127	0xbde1888d	-0.11012373
128	0xbd972bea	-0.07381423
129	0xbdf67ed8	-0.12035912
130	0xbda4afca	-0.080413416
131	0xbdb52f11	-0.08846868
132	0x3e3b050a	0.18263641
133	0xbd351683	-0.044210922
134	0x3c7fbb12	0.015608566
135	0x3d83d7e7	0.064376645
136	0x3ca01d88	0.019545332
137	0xbbb6e6dc	-0.00558172
138	0x3d97551c	0.0738928
139	0x3e02af51	0.1276219
140	0x3d51eb07	0.05124953
141	0x3d18c065	0.037292857
142	0xbe225965	-0.15854414
143	0x3dfbd932	0.12297286
144	0x3d036670	0.032080114
145	0x3dba806d	0.091065265
146	0xbe0ddf9d	-0.13854833
147	0xbd15c4d2	-0.036564656
148	0x3d97bbae	0.07408844
149	0xbd7e6106	-0.062104248
150	0xbdc53493	-0.09629168
151	0x3d9e31d2	0.07724346
152	0xba6cb972	-0.0009030319
153	0xbe2bf3f6	-0.16792282
154	0x3e05e131	0.13074185
155	0xbe0197a6	-0.12655506
156	0x3e1795a2	0.14803174
157	0xbd618a40	-0.055063486
158	0xbdaf3fa5	-0.08557061
159	0xbdb5e4d5	-0.08881537
160	0xbdb794ff	-0.089639656
161	0xbdf11291	-0.117711194
162	0xbdf48297	-0.119389705
163	0x3e2a19f2	0.1661146
164	0xbcd123d6	-0.025529783
165	0xbd766437	-0.060154166
166	0xbe1f55b8	-0.15560043
167	0xbde95ba6	-0.11394434
168	0xbdc4354d	-0.09580479
169	0x3db86ac6	0.090047404
170	0x3d8ba758	0.06819028
171	0xbca4bdfa	-0.02011012
172	0xbe33cd2a	-0.17558733
173	0xbe0c15bf	-0.1368017
174	0x3c077eb0	0.008269951
175	0xbe29f7b1	-0.16598393
176	0xbd2f5ff0	-0.042816103
177	0x3d1129b4	0.03544016
178	0x3abac828	0.0014250325
179	0x3e34868d	0.17629452
180	0x3d824295	0.06360356
181	0xbd6fa462	-0.058506377
182	0x3d4668e7	0.048439886
183	0x3e3b3ca6	0.18284854
184	0x3e1ae95a	0.15128079
185	0x3df68b9e	0.120383486
186	0xbdbbe040	-0.09173632
187	0x3d4506ef	0.048102316
188	0x3e0b8f2a	0.13628832
189	0xbd3338b7	-0.04375526
190	0xbde41f92	-0.11138834
191	0x3e1c2671	0.15249039
192	0xbe072fef	-0.13201879
193	0x3e37fc5e	0.17967364
194	0xbdfcdc0a	-0.123466566
195	0xbdac2235	-0.08404962
196	0xbe1e5d79	-0.15465344
197	0x3e436757	0.1908239
198	0xbe41d457	-0.18928657
199	0xbdd76018	-0.10516375
200	0x3e0c3c32	0.13694838
201	0x3ded567b	0.115887605
202	0xbe34277e	-0.1759319
203	0x3cf00adb	0.029302051
204	0xbd889f08	-0.06670958
205	0xbdeea495	-0.11652485
206	0xbdbcfe92	-0.09228243
207	0x3e2a21c9	0.1661445
208	0xbe3cf01a	-0.18450966
209	0xbb2b66cb	-0.0026153799
210	0x3cb82efc	0.022483341
211	0xbe0f8356	-0.14014944
212	0xbe2576d8	-0.16158617
213	0x3e17829c	0.14795917
214	0x3dad3b15	0.08458535
215	0x3dd67a33	0.104725264
216	0xbdfc1e05	-0.12310413
217	0xbe20a7a4	-0.1568895
218	0xbe053f75	-0.13012488
219	0x3e16854b	0.14699285
220	0xbc16dfd8	-0.009208642
221	0x3db9a78f	0.090651624
222	0x3b831e63	0.004001425
223	0xbdbf03cc	-0.09326896
224	0x3cbc8c59	0.023016142
225	0xbe218d12	-0.1577647
226	0xbe13f7be	-0.14449975
227	0x3e21afe2	0.1578975
228	0xbe0b98ed	-0.13632555
229	0xbc829127	-0.015938355
230	0xbe1c4169	-0.15259327
231	0xbdd7c489	-0.10535533
232	0x3d358395	0.04431494
233	0x3db1ab4c	0.086752504
234	0x3e29481d	0.16531415
235	0xbdcef5c3	-0.10105469
236	0x3e28c4cf	0.16481327
237	0xbe21f006	-0.15814218
238	0xbd89ae66	-0.06722717
239	0x3de61e31	0.11236227
240	0x3e30e756	0.17275748
241	0x3e26d0d5	0.162906
242	0x3e1aba45	0.15110119
243	0xbd319a3c	-0.04335998
244	0xbe1b1d47	-0.15147887
245	0x3d200ce5	0.039074797
246	0x3b7e6377	0.003881661
247	0xbe28c006	-0.16479501
248	0x3e445d60	0.19176245
249	0x3dcaeca2	0.099084154
250	0x3e277c66	0.16356048
251	0xbd75720b	-0.059923213
252	0xbe158dd2	-0.14604881
253	0x3e2bd1dd	0.16779275
254	0xbd852280	-0.06500721
255	0x3e0eac34	0.13932878

bias f4 [256]
0	0xbdcc331f	-0.09970688
1	0x3c01460a	0.007890234
2	0xbdcd626b	-0.10028537
3	0x3da5d9af	0.080981605
4	0xbe1ba010	-0.15197778
5	0x3ca89d7b	0.020582905
6	0xbe1c32f6	-0.15253815
7	0xbe142c28	-0.1446997
8	0x3d47df9f	0.048797246
9	0x3e012482	0.12611583
10	0x3e0c870e	0.13723394
11	0x3e15b652	0.14620331
12	0xb8b21302	-8.491242e-05
13	0x3ccf3df1	0.02529809
14	0x3c4326dc	0.01191112
15	0x3d9a694a	0.075396135
16	0x3dd85d8a	0.10564716
17	0x3cf29cf2	0.029615853
18	0x3dbdd5aa	0.09269269
19	0x3dfada37	0.122486524
20	0xbddf4f8d	-0.10903845
21	0xbd165690	-0.036703646
22	0x3bf0a7a6	0.007344204
23	0xbe21a269	-0.15784611
24	0x3e1d4b6f	0.15360807
25	0x3d69b576	0.05705782
26	0xbdb1d6d6	-0.08683555
27	0xbd75c032	-0.059997745
28	0xbdab507e	-0.08364962
29	0x3e09c1b6	0.13452801
30	0x3e42cb87	0.19022952
31	0x3e3b06f9	0.18264379
32	0xbe05c738	-0.13064277
33	0xbd9500df	-0.07275557
34	0xbdbd5810	-0.09245312
35	0x3dd7fc32	0.10546149
36	0xbdb0d21f	-0.086338274
37	0x3e317c0a	0.17332473
38	0x3d8eb649	0.06968362
39	0xbd5e998e	-0.05434566
40	0xbd6716e2	-0.056418307
41	0xbe001d4b	-0.12511174
42	0xbd457ca4	-0.04821457
43	0x3d8f7152	0.07004036
44	0x3e17bde9	0.14818539
45	0xbd2803fa	-0.041019417
46	0x3b5be720	0.003355451
47	0x3e0487f0	0.12942481
48	0x3dca2523	0.098703645
49	0x3e2d8803	0.16946416
50	0xbe1c2a07	-0.15250407
51	0xbcb74d5c	-0.022375755
52	0xbc837588	-0.016047254
53	0xbbc307e0	-0.0059518665
54	0xbd106227	-0.035249855
55	0x3be4ef2f	0.0069865207
56	0xbe1dc48d	-0.1540701
57	0x3d82a280	0.06378651
58	0xbde5ddf6	-0.11223976
59	0xbe418ad1	-0.1890061
60	0x3dd1fbbb	0.10253092
61	0x3dbbc62e	0.09168659
62	0x3e33eeaf	0.1757152
63	0xbe06c76d	-0.13162012
64	0xbd9c32a1	-0.07626844
65	0x3e2c40a9	0.16821541
66	0xbe0951e8	-0.13410151
67	0xbe1cea82	-0.15323833
68	0x3e2ed812	0.17074612
69	0xbdb97b20	-0.09056687
70	0x3cf897e8	0.030345872
71	0x3ca87ae3	0.02056641
72	0x3da97b6c	0.08275494
73	0x3dc00c44	0.093773395
74	0xbe065a87	-0.13120471
75	0xbe02e822	-0.12783864
76	0xbd37679c	-0.044776544
77	0xbe3dba8e	-0.18528196
78	0xbdd1b275	-0.10239116
79	0x3cad231e	0.02113491
80	0x3df7c0e7	0.1209734
81	0xbd733543	-0.059376966
82	0x3de141e2	0.10998894
83	0xbe2d7c7e	-0.16942021
84	0x3def3f58	0.11682004
85	0x3e049d1b	0.12950556
86	0x3e280342	0.16407493
87	0xbdd3b59b	-0.10337373
88	0xbe1799ae	-0.14804718
89	0x3d1d99f4	0.0384769
90	0x3c3f6fef	0.011684402
91	0x3cfeda51	0.03110996
92	0x3e39ed5e	0.18156955
93	0x3e22479e	0.15847632
94	0x3d9de64d	0.07709942
95	0xbe218fa6	-0.15777454
96	0xbd403ef7	-0.046935048
97	0xbe34ede1	-0.17668869
98	0x3de00016	0.109375164
99	0x3d6a8bbe	0.057262175
100	0x3de1f278	0.11032575
101	0xbcda4906	-0.026646148
102	0xbc590581	-0.013245941
103	0x3dd57b4e	0.10423909
104	0xbd644510	-0.055729926
105	0xbe295356	-0.16535696
106	0xbceb8680	-0.028750658
107	0x3e373735	0.17892154
108	0xbdf76a98	-0.12080878
109	0x3e297c3a	0.16551295
110	0x3daef531	0.0854286
111	0xbd73dfbd	-0.059539545
112	0x3da9a489	0.08283336
113	0x3d43a7bb	0.047767382
114	0x3e23dd8b	0.1600248
115	0x3dbf77ee	0.09349047
116	0xbdca0e27	-0.098659806
117	0xbdb41f1e	-0.08794998
118	0x3e381f8a	0.17980781
119	0x3dec9283	0.115513824
120	0xbe13babf	-0.14426707
121	0x3cb8fb67	0.022580815
122	0xbdd9067b	-0.10596939
123	0x3dc0747c	0.09397218
124	0xbe12c652	-0.14333466
125	0x3e40deb5	0.18834956
126	0x3d83b354	0.064306885
127	0xbd5a3861	-0.053276423
128	0xbdbc3154	-0.09189096
129	0xbe0a68e4	-0.13516575
130	0x3de6d4f7	0.112710886
131	0x3cdccb5b	0.026952436
132	0xbd80085e	-0.06251596
133	0x3cce5f96	0.025192063
134	0x3d0006a2	0.031256326
135	0x3e0f558f	0.13997482
136	0x3c49f6cb	0.012326906
137	0x3de50104	0.11181834
138	0xbdc6b67e	-0.09702776
139	0xbe3e802a	-0.18603578
140	0x3c8ed6b3	0.017436361
141	0xbe3acd02	-0.18242267
142	0xbd7cc500	-0.06171131
143	0x3d4df75c	0.05028473
144	0x3e1a5ffc	0.15075678
145	0xbe42bb33	-0.19016723
146	0x3df56279	0.11981673
147	0x3dc79b57	0.097464256
148	0xbc6f9503	-0.0146229295
149	0x3d6f93e9	0.058490667
150	0x3e0680e0	0.131351
151	0x3d97fc16	0.074211285
152	0xbe0e9e65	-0.1392761
153	0x3d8556d0	0.06510699
154	0x3d8952d6	0.06705253
155	0x3e02c7aa	0.12771478
156	0x3e4103b7	0.18849073
157	0x3e08dd3e	0.13365647
158	0xbd4daa6a	-0.050211348
159	0x3e07a62b	0.13246982
160	0x3d779cee	0.060452394
161	0xbd36f3d1	-0.044666115
162	0x3c5c011f	0.013428002
163	0x3dc702ea	0.09717353
164	0x3db673a0	0.089087725
165	0xbe07d1e3	-0.13263659
166	0x3ca48273	0.020081734
167	0xbe0ebb2b	-0.13938586
168	0x3dec7baf	0.11547028
169	0x3bab65bc	0.0052306335
170	0x3dc90546	0.09815459
171	0xbb7e6ff3	-0.003882405
172	0xbd9cfb1c	-0.07665083
173	0xbe26facd	-0.1630661
174	0x3e1d259f	0.15346383
175	0xbe439d50	-0.19102979
176	0xbdbae017	-0.09124773
177	0x3e407b2f	0.18796991
178	0xbe10c4b2	-0.14137533
179	0x3dc1b02a	0.09457429
180	0x3d92e7ec	0.07173142
181	0xbcbe9128	-0.023262575
182	0x3e3a1661	0.181726
183	0xbd47af47	-0.048751142
184	0xbdd06b0a	-0.10176666
185	0x3dd6b3bb	0.104834996
186	0x3df86cd0	0.12130129
187	0x3e016f96	0.12640223
188	0x3dd61017	0.10452288
189	0xbd2e857e	-0.042607777
190	0x3d3a0f40	0.0454247
191	0xbd04d9fc	-0.03243445
192	0xbc8b43c6	-0.01700009
193	0xbd49753f	-0.04918408
194	0x3c0565d2	0.008141952
195	0xbe337198	-0.17523801
196	0xbdef3e41	-0.11681796
197	0xbde17c50	-0.11010039
198	0x3de771aa	0.113009766
199	0x3da597e9	0.08085615
200	0x3d8625f8	0.06550211
201	0x3bc67ba9	0.006057222
202	0xbe3f0356	-0.18653616
203	0xbe266497	-0.1624931
204	0xbd576fb8	-0.052596778
205	0xbd5f774f	-0.05455714
206	0xbc39c231	-0.011337803
207	0x3d456814	0.04819496
208	0x3b52f81a	0.0032191337
209	0xbdfb2b95	-0.12264172
210	0xbe0edbbe	-0.13951012
211	0xbe00bd9f	-0.12572335
212	0x3d856ecf	0.06515276
213	0x3e0b900b	0.13629167
214	0x3dd7e351	0.10541404
215	0x3cb64637	0.022250278
216	0xbe372905	-0.17886741
217	0xbe24fd5a	-0.16112271
218	0x3da5a132	0.08087386
219	0xbe3db9bc	-0.18527883
220	0x3e36ac5e	0.1783919
221	0x3da450f0	0.0802325
222	0xbe287891	-0.16452242
223	0xbd5890da	-0.052872516
224	0x3ba5510a	0.005045061
225	0x3e0b34f0	0.13594413
226	0x3e041965	0.12900312
227	0x3d8aaf70	0.06771743
228	0x3da16f0f	0.07882511
229	0x3a0152fd	0.00049333257
230	0xbe21e6f9	-0.15810765
231	0xbe2e9da7	-0.17052327
232	0x3e4215b8	0.18953598
233	0x3e2f6f3f	0.17132281
234	0xbe21289f	-0.15738152
235	0x3d16d6eb	0.036826055
236	0x3e3b4081	0.18286325
237	0xbdc2dc8f	-0.095147245
238	0x3c3dc441	0.011582435
239	0x3dbc2065	0.09185866
240	0x3d919404	0.0710831
241	0x3e34e338	0.17664802
242	0x3d9b36e1	0.07578827
243	0x3e28f6b7	0.16500364
244	0x3d418a09	0.04725078
245	0xbde2ba97	-0.110707454
246	0xbdd94e38	-0.10610622
247	0xbdb54f26	-0.08852987
248	0xbb429611	-0.0029691497
249	0xbdcda3de	-0.10041021
250	0xbe3f692e	-0.18692467
251	0xbc5cda79	-0.013479822
252	0xbe18a218	-0.14905584
253	0x3dd78600	0.10523605
254	0x3e1a66cd	0.15078278
255	0xbdb8deb7	-0.090268545

weight f4 [256, 256]
0	0x3d699389	0.057025466
1	0x3d4a1456	0.0493358
2	0x3997f6e6	0.00028984918
3	0x3d30f6cd	0.043204118
4	0x3d00e499	0.031468008
5	0x3ccadcd2	0.024763498
6	0xbd087f9d	-0.033324827
7	0x3d2c9207	0.04213145
8	0xbcf71130	-0.030159563
9	0xbd48c08e	-0.04901176
10	0xbd605153	-0.054765057
11	0xbc9044ef	-0.017610995
12	0x3d4eb498	0.050465196
13	0xbd6c9f0d	-0.05776887
14	0x3d4f9970	0.05068344
15	0x3d328a75	0.043589074
16	0xbd730fff	-0.059341427
17	0xbd65f2a8	-0.05613962
18	0x3d70aff4	0.058761552
19	0xbd45bdd4	-0.048276737
20	0x3d5e9d00	0.054348946
21	0x3d7b6653	0.06137688
22	0x3d17b305	0.03703596
23	0x3d0f8e70	0.03504795
24	0x3d37de49	0.044889722
25	0xbc4a4cfc	-0.012347456
26	0xbc985665	-0.018595884
27	0xbd067343	-0.032824766
28	0xbc8e4497	-0.01736669
29	0xbd3389f0	-0.04383272
30	0xbd1ecf97	-0.03877219
31	0x3d155abc	0.036463484
32	0xbcb2411c	-0.021759562
33	0xbd528bdc	-0.05140291
34	0xbbb9d5a1	-0.0056712185
35	0x3d201838	0.039085597
36	0xbd652e33	-0.055952262
37	0x3cbe0fd0	0.0232009
38	0xbd581ba0	-0.05276072
39	0xbbd6caa3	-0.006554918
40	0xbd634b46	-0.05549171
41	0x3d1d4f27	0.038405564
42	0x3c557136	0.01302748
43	0x3c6a28cd	0.014291954
44	0x3a066fd1	0.0005128356
45	0x3d2885ed	0.041143347
46	0xbd0543af	-0.03253525
47	0x3baa5b9f	0.0051989104
48	0x3ce8652d	0.028368557
49	0xbd312ac4	-0.043253675
50	0xbd37edb5	-0.04490443
51	0x3d539588	0.051656276
52	0xbcdc35a9	-0.026881056
53	0xbc3e48bd	-0.011614022
54	0x3bf98a99	0.007615399
55	0xbbfda6af	-0.0077408175
56	0x3c49ba92	0.012312548
57	0x3d681826	0.056663655
58	0x3c1d9c24	0.009619746
59	0x3d18db0b	0.03731827
60	0xbd41d361	-0.047320727
61	0xbd52e1db	-0.051484924
62	0x3d3b9b2e	0.045802288
63	0x3ccca941	0.02498305
64	0xbc9c4d61	-0.019079866
65	0xbd4e2fbe	-0.0503385
66	0xbd67a11a	-0.056550123
67	0xbd1c7597	-0.03819808
68	0xbd03e365	-0.032199282
69	0xbd7aa194	-0.06118925
70	0x3c88b72c	0.016688906
71	0x380b815d	3.326066e-05
72	0x3d35f0df	0.044419166
73	0x3d4fdb06	0.050745986
74	0xbbb2afa2	-0.005453066
75	0xbc694b2e	-0.014239116
76	0x3cd669d8	0.026173517
77	0xbc22a582	-0.009927155
78	0x3d7cbe4e	0.061704926
79	0x38ebf250	0.000112508074
80	0x3caab77b	0.020839443
81	0xbd31bc78	-0.04339263
82	0xbd04dc57	-0.032436695
83	0x3c05aae0	0.008158416
84	0xbcc60d40	-0.02417624
85	0xbd11d7fc	-0.03560637
86	0xbd1c8752	-0.03821499
87	0x3b10e2cb	0.0022107835
88	0x3c7a265b	0.015267934
89	0x3d00fbf3	0.031490277
90	0xbd3d5652	-0.0462249
91	0x3d22b03d	0.039718855
92	0x3d6c8370	0.057742536
93	0xbca4cac9	-0.020116227
94	0x3d07da25	0.033167023
95	0x3d7c25fe	0.06155967
96	0x3d18ebef	0.03733438
97	0xbce98b1a	-0.028508712
98	0x3d604103	0.0547495
99	0xbd142b90	-0.036174357
100	0xbd377cfb	-0.044796925
101	0x3d7b383c	0.061332926
102	0xbd2f4b5c	-0.042796478
103	0x3d5022ef	0.050814565
104	0xbd53e2f7	-0.051730122
105	0x3c26e4ba	0.010186369
106	0x3d290fae	0.04127472
107	0xbd3d2e7f	-0.04618692
108	0x3acb111c	0.001549277
109	0x3c52a208	0.012856014
110	0x3b57f871	0.003295448
111	0x3c8df857	0.017330332
112	0x3d57339c	0.052539453
113	0x3d3485a9	0.04407278
114	0xbc5f3400	-0.013623238
115	0xbcd4f3d6	-0.025995176
116	0xbcbf4f13	-0.023353135
117	0x3cd512bd	0.026009912
118	0x3d28288d	0.041054297
119	0x3c83fd9e	0.016112145
120	0x3d5d93cc	0.05409603
121	0xbbc4bd11	-0.006003984
122	0xbc0c9925	-0.008581434
123	0xbd3e05e7	-0.046392348
124	0x3d47e21b	0.048799615
125	0xbd4156ee	-0.047202043
126	0xbcb80aad	-0.022466028
127	0xbd74ee92	-0.05979783
128	0x3d11a295	0.03555544
129	0xbc5b688e	-0.013391627
130	0xbcf7bff1	-0.030242892
131	0x3d208089	0.03918508
132	0x3d2c54dd	0.04207312
133	0xbd4d0299	-0.050051305
134	0x3d180e4e	0.037123017
135	0x3d182e0c	0.03715329
136	0xbd43008a	-0.047607936
137	0xbd18c479	-0.037296746
138	0xbc8a814d	-0.016907359
139	0x3d301efa	0.04299829
140	0x3cb26e2f	0.021781055
141	0x3d6b99f3	0.057519864
142	0x3c48d552	0.012257891
143	0xbcca6e01	-0.024710657
144	0x3d06d933	0.03292198
145	0xbd10021d	-0.035158265
146	0xbd4f7c6c	-0.050655767
147	0xbd1014e0	-0.035176158
148	0x3bf0c98a	0.007348244
149	0x3d799a3b	0.0609381
150	0xbd80078b	-0.06251439
151	0xbcd14373	-0.025544858
152	0x3cc69ed3	0.024245655
153	0xbd464627	-0.048406746
154	0xbd18d80c	-0.037315413
155	0x3d214022	0.039367802
156	0xbbe97ac8	-0.0071252324
157	0xbd0d9b50	-0.034571946
158	0x3d438039	0.047729705
159	0x3d6a1ea5	0.05715813
160	0x3c8df8ad	0.017330492
161	0x3d7224c0	0.05911708
162	0xbca962eb	-0.02067705
163	0xbd52c898	-0.051460832
164	0x3d32feaf	0.043699916
165	0xbd251e1a	-0.04031191
166	0xbb92b3ef	-0.004477016
167	0xbc1692dc	-0.009190287
168	0x3cc7748d	0.024347568
169	0x3d099662	0.03359068
170	0x3b0cfe5e	0.002151392
171	0xbd7b8e33	-0.06141491
172	0x3d3165ce	0.04330998
173	0xba7b3921	-0.0009583403
174	0xbcf20f0e	-0.029548194
175	0xbd39422a	-0.045229115
176	0xbd2707ee	-0.040779047
177	0xbd59f619	-0.053213213
178	0x3c2576a1	0.010099084
179	0xbcda6eac	-0.0266641
180	0xbd56b0da	-0.052414753
181	0x3c322961	0.010874123
182	0xbd26ea92	-0.040751047
183	0x3c1af7e0	0.009458512
184	0xbce836f5	-0.028346518
185	0x3d471cda	0.0486115
186	0xbc1df7ac	-0.009641569
187	0x3cbe593a	0.023235906
188	0x3c2f5287	0.010700828
189	0x3d6f81c4	0.058473364
190	0xbc8d3dd8	-0.017241403
191	0xbd5bf8e7	-0.05370417
192	0xbcf152fa	-0.029458512
193	0x3d427feb	0.047485273
194	0xbd2c3d00	-0.04205036
195	0x3d029ae0	0.03188598
196	0x3d6b58ab	0.057457607
197	0x3d077bfa	0.033077218
198	0xbcc8d04a	-0.024513382
199	0xbc14c893	-0.009081024
200	0xbb58f800	-0.0033106804
201	0x3d78ab56	0.060710274
202	0xbcdb5e99	-0.026778506
203	0xbcef2305	-0.029191503
204	0xbd3f5b9f	-0.046718236
205	0xbd211cfc	-0.039334282
206	0x3d1cea78	0.038309544
207	0x3cf3fcdf	0.029783664
208	0xbc9bb6c3	-0.019008046
209	0xbd7281d6	-0.059205852
210	0x3d7d397c	0.0618224
211	0xbd17a8d6	-0.03702625
212	0x3cc46246	0.023972642
213	0xbc1d98b3	-0.009618926
214	0x3cfe18c4	0.031017669
215	0x3c900a69	0.017583089
216	0x3d535bef	0.051601347
217	0x3d3cd7b1	0.046104137
218	0xbd198f72	-0.037490316
219	0x3b90878e	0.0044106906
220	0xbd0eb397	-0.03483924
221	0x3d2add8f	0.0417152
222	0xbcc43860	-0.023952663
223	0xbb883cfb	-0.00415766
224	0x3c9d64b5	0.01921306
225	0x3d2eb17b	0.042649727
226	0xbc0b5f30	-0.008506581
227	0x3d06809a	0.032837488
228	0xbd4b5ee7	-0.049651053
229	0xbd1fcdcb	-0.03901462
230	0x3968660e	0.00022163262
231	0x3d290960	0.041268706
232	0xbd801d4f	-0.0625559
233	0x3d600b86	0.05469849
234	0x3d1e9390	0.038714945
235	0xbc8f67b4	-0.017505504
236	0x3d14b996	0.0363098
237	0xbce071d8	-0.027398035
238	0x3c15ef05	0.009151225
239	0xbcd857eb	-0.02640911
240	0x3d393903	0.045220386
241	0xbd2e1d1c	-0.04250823
242	0xbd0dde16	-0.034635626
243	0xbcb71f8c	-0.02235391
244	0x3c9a5501	0.018839361
245	0x3d3de95d	0.04636513
246	0xbd06c8bd	-0.032906283
247	0xbc373e97	-0.011184356
248	0xbd7647e8	-0.06012717
249	0xbcc6f8fa	-0.024288643
250	0xbd211092	-0.039322443
251	0xbc265f09	-0.010154494
252	0x3d2c6e3f	0.042097326
253	0x3d2ad99a	0.041711427
254	0x3d20439e	0.039126985
255	0xbc9de4c4	-0.019274123

bias f4 [256]
0	0x3cb93267	0.022607042
1	0xbb163846	-0.0022921725
2	0x3d58e8e0	0.052956462
3	0xbd724218	-0.059145063
4	0xbd4bf4c5	-0.049793977
5	0xbc890ad4	-0.016728796
6	0xbd756e91	-0.059919897
7	0xbccecd3e	-0.025244351
8	0xbcb47fcc	-0.022033595
9	0x3cfeccdc	0.031103544
10	0xbd3a85b7	-0.045537677
11	0xbd2c8739	-0.042121146
12	0x3d1c07b0	0.03809327
13	0x3d3664b8	0.044529647
14	0x3c0ce59c	0.008599665
15	0x3d667076	0.056259595
16	0x3d49cdf5	0.04926868
17	0x3d76af88	0.060225993
18	0xbcd98db3	-0.026556825
19	0x3d7bdbc9	0.0614889
20	0xbcdedf7e	-0.027206179
21	0x3c505c66	0.012717342
22	0x3d067b45	0.032832403
23	0xbc56f8eb	-0.01312087
24	0xbc937635	-0.018000701
25	0xbd01d29c	-0.031694993
26	0x3d55b62d	0.05217569
27	0x3d5aa881	0.053383354
28	0x3ce51528	0.02796419
29	0xbd5903fe	-0.052982323
30	0x3d64ebe8	0.05588904
31	0x3ce00e4f	0.027350573
32	0x3a71831c	0.0009212957
33	0x3d1a3704	0.037650123
34	0xbd0068b1	-0.03134984
35	0xbd0e293e	-0.0347073
36	0xbcf040ee	-0.029327836
37	0xbcf785a6	-0.030215096
38	0x3cb69f34	0.02229271
39	0x3ca397c2	0.019969825
40	0xbd5b8dda	-0.053602077
41	0x3cba8406	0.022768032
42	0x3d136bbc	0.035991415
43	0x3d716e12	0.05894286
44	0x3d04cc8a	0.032421626
45	0xbd1c1ee2	-0.03811539
46	0x3d776732	0.06040115
47	0xbcf05588	-0.02933766
48	0x3d19d8b9	0.0375602
49	0x3cd06a75	0.025441388
50	0x3d745721	0.059653405
51	0xbc4424a6	-0.011971628
52	0xbd367292	-0.044542857
53	0x3cc84fcd	0.024452114
54	0xbcf8550b	-0.03031399
55	0xbd2408be	-0.0400474
56	0xbc827c50	-0.015928417
57	0x3c8b41f5	0.016999224
58	0xbd174354	-0.036929443
59	0xbd73e39f	-0.05954325
60	0xbcd80cf4	-0.026373364
61	0xba0c2096	-0.0005345432
62	0x3d224219	0.039613817
63	0xbc99cb1f	-0.018773613
64	0xbd5a730b	-0.05333237
65	0xbbe082b0	-0.0068515167
66	0xbc62048a	-0.0137950275
67	0xbd11da5a	-0.035608627
68	0x3cedf367	0.029046727
69	0xbd3bd43b	-0.045856696
70	0xbcfc9758	-0.030833885
71	0x3ce20864	0.027591892
72	0xbd3b090b	-0.04566292
73	0xbd7418e5	-0.059594054
74	0xbcbb2c51	-0.02284828
75	0x3bff5be3	0.007792936
76	0xbbe54fd8	-0.0069980435
77	0x3cd4792b	0.025936684
78	0xbd59b230	-0.05314845
79	0x3d292df8	0.041303605
80	0xbb443169	-0.0029936677
81	0xbd322f5f	-0.043502208
82	0x3d26ae34	0.040693477
83	0x3c0644cf	0.008195116
84	0x3d1fae81	0.03898478
85	0x3d1a17ef	0.03762048
86	0xbd1c5d6d	-0.038175035
87	0xbd6f3112	-0.058396406
88	0x3caa934f	0.020822195
89	0x3d6b64ad	0.05746906
90	0x3d136d4a	0.035992898
91	0xbcf1b3e4	-0.029504724
92	0xbccb8af0	-0.024846524
93	0xbc0595b3	-0.008153367
94	0xbbb1a2af	-0.0054210047
95	0x38aeeb16	8.340755e-05
96	0x3c24ff84	0.010070685
97	0x3c9d54b1	0.019205423
98	0xbbf50fcb	-0.0074786893
99	0xbd2b2fcd	-0.041793633
100	0xbcd553a9	-0.026040869
101	0xbc496717	-0.012292645
102	0xbd6768e5	-0.05649652
103	0x3d522d42	0.051312692
104	0x3d1f0eab	0.038832348
105	0x3d27a333	0.040927123
106	0xbaf5b321	-0.0018745401
107	0xbcb767c5	-0.022388348
108	0xbd2efab3	-0.042719554
109	0xbce3f982	-0.027828936
110	0x3d184471	0.037174646
111	0xbc90582e	-0.017620172
112	0xbd493fbc	-0.049133047
113	0x3c497719	0.0122964615
114	0x3d11394c	0.035455033
115	0xbd0a1ca1	-0.03371871
116	0x3d364336	0.04449769
117	0x3cc0c110	0.02352956
118	0x3b87c73d	0.004143624
119	0x3d065564	0.03279628
120	0x3d55bc46	0.052181505
121	0x3d510238	0.051027507
122	0xbcbfaa17	-0.023396535
123	0x3cd856e4	0.02640862
124	0x3d1a8436	0.037723742
125	0xbd1d794b	-0.038445752
126	0xbbdd8336	-0.0067600263
127	0x3d61787c	0.055046543
128	0x3c8a9e6a	0.01692124
129	0x3cfd561e	0.030924853
130	0x3d755ba5	0.059901852
131	0x3d1d5be7	0.038417723
132	0x3d237d6f	0.039914545
133	0xbc2da321	-0.010597975
134	0xbd6259ac	-0.0552613
135	0x3d2bb8d2	0.041924305
136	0x3d232781	0.039832596
137	0xbc38ffd2	-0.011291461
138	0xbcda2ef3	-0.026633715
139	0xbd0ab3f7	-0.033863034
140	0xbc0cc854	-0.008592684
141	0x3d12800b	0.035766643
142	0xbc65b915	-0.014021178
143	0xbcbfffbd	-0.023437375
144	0x3cdaee27	0.026724888
145	0x3ca14eb9	0.019690858
146	0xbd36ac8f	-0.04459816
147	0xbd1ed6fc	-0.038779244
148	0xbcf089c7	-0.029362572
149	0x3cabdc9c	0.020979218
150	0x3c843cce	0.016142275
151	0xbd30a0e5	-0.04312219
152	0xbcca310f	-0.024681596
153	0xbd5daaee	-0.05411809
154	0xbd009c54	-0.031399086
155	0xbd0f3e6d	-0.034971643
156	0xbd1da3a0	-0.038486123
157	0x3d1213dc	0.03566347
158	0x3d4c4538	0.0498707
159	0x3ce243d8	0.027620241
160	0xbccbff64	-0.024902053
161	0x3b8de593	0.004330346
162	0xbd178c10	-0.03699881
163	0x3bf10698	0.0073555224
164	0xbd1dfcea	-0.038571276
165	0xbcf58666	-0.029971313
166	0x3b448484	0.0029986212
167	0xbc875ac6	-0.016522776
168	0xbd304fff	-0.04304504
169	0x3c932d7f	0.01796603
170	0x3cf84a91	0.030308994
171	0xbcf810e9	-0.0302815
172	0x3d79bb16	0.060969435
173	0x3d06268b	0.0327516
174	0x3c3a9c31	0.011389778
175	0xbd2939a4	-0.041314736
176	0x3d6b56c6	0.0574558
177	0x3d13d98d	0.036096144
178	0xbc8079ae	-0.015683021
179	0x3cd7e411	0.026353868
180	0x3d471fa4	0.04861416
181	0xbd03f322	-0.03221429
182	0x3cff90c6	0.031196963
183	0x3d52217c	0.051301464
184	0xbcb66018	-0.022262618
185	0x3d52ce46	0.05146625
186	0x3cfcf694	0.030879296
187	0xbd20c5f5	-0.039251287
188	0x3b215c17	0.002462154
189	0x3d58fa35	0.05297299
190	0x3d11cd12	0.03559596
191	0xba47ebf6	-0.00076264085
192	0x3d2a0037	0.04150411
193	0x3c6aa8ab	0.01432244
194	0xbd4ca2e3	-0.04996003
195	0x3cc7d3fe	0.024393078
196	0x3d230ace	0.039805226
197	0xbb98dd0f	-0.004665024
198	0xbd2a3e75	-0.04156347
199	0x3ba67e4b	0.0050809733
200	0xbd721bba	-0.059108473
201	0x3d3195c9	0.043355737
202	0x3d659b1b	0.056056123
203	0xbc42f77b	-0.011899824
204	0x3d47ce5a	0.048780777
205	0xbbfbd84e	-0.0076856976
206	0xbcee6c53	-0.029104387
207	0x3d08bbad	0.033382107
208	0x3afa9bc6	0.001911991
209	0xbd1f6df3	-0.038923215
210	0xbd4df2b4	-0.050280288
211	0x3d11e636	0.035619937
212	0x3d4adf4e	0.049529366
213	0xbc4d6961	-0.012537331
214	0xbd56fb18	-0.052485555
215	0xbd0ddd26	-0.03463473
216	0xbca21bb7	-0.019788606
217	0x3d176b1a	0.036967374
218	0x3cfde9c4	0.030995257
219	0xbc084b26	-0.008318698
220	0xbd20f415	-0.039295275
221	0x3d474c27	0.04865661
222	0xbd64589f	-0.05574858
223	0xbd3dc37a	-0.046329
224	0xbd801283	-0.06253531
225	0x3d794fc0	0.06086707
226	0x3d61adef	0.055097517
227	0xbcfdfb93	-0.031003749
228	0x3d789994	0.06069334
229	0x3d546608	0.051855117
230	0x3d3e3101	0.046433453
231	0x3d3e957f	0.04652929
232	0xbd716937	-0.05893823
233	0x3d2ffaee	0.042963915
234	0xbd4c9059	-0.04994235
235	0x3ca0788e	0.019588735
236	0xbd7ce466	-0.061741255
237	0x3d6dc7ad	0.058051754
238	0x3d223dbb	0.039609652
239	0xbd8171f8	-0.06320566
240	0x3d2fe945	0.042947073
241	0x3a11d873	0.00055635645
242	0xbc9da786	-0.01924492
243	0xbba567b1	-0.0050477614
244	0xbc1dbdee	-0.009627802
245	0x3bec2601	0.007206679
246	0xbd79170e	-0.060813002
247	0x3cbaa560	0.022783935
248	0x3c3dd9ae	0.011587543
249	0x3c9e2fb6	0.01930986
250	0x3d029f70	0.031890333
251	0x3b765aa9	0.0037590659
252	0x3d50e732	0.051001735
253	0xbd687965	-0.056756396
254	0x3d119587	0.03554299
255	0xbd1cc5d6	-0.03827461

weight f4 [256, 256]
0	0xbb81f050	-0.003965415
1	0xbcd18e16	-0.025580447
2	0x3bc96a94	0.0061467383
3	0x3d1b8c23	0.03797544
4	0xbce04731	-0.027377697
5	0x3bdea0d9	0.006794077
6	0x3d3958a2	0.045250542
7	0x3d427388	0.04747346
8	0xbce3c772	-0.027805064
9	0x3d71c7f6	0.05902859
10	0x3cea9138	0.028633699
11	0xbc6b5529	-0.0143635655
12	0x3d5334ae	0.05156391
13	0xbb5d8883	-0.003380329
14	0xb9917598	-0.0002774417
15	0x3d4b76e5	0.049673934
16	0xbd6179cf	-0.055047806
17	0x3c4d8a33	0.012545156
18	0x3c9c540f	0.019083051
19	0xbd4e1572	-0.05031342
20	0x3b449fc6	0.003000246
21	0xbd56c0be	-0.052429907
22	0xbd326489	-0.04355291
23	0xbcdc9049	-0.02692427
24	0x3d3c10b9	0.045914385
25	0x3d6f393f	0.058404204
26	0x3c63b47d	0.013898012
27	0x3bb573e7	0.0055374983
28	0xbc0ff81f	-0.008787184
29	0xbce25644	-0.027629025
30	0x3cbf3478	0.023340449
31	0x3d7554d5	0.059895355
32	0xbd2b8d1e	-0.041882627
33	0xbd62a567	-0.05533352
34	0x3c8005dc	0.015627794
35	0x3cffbf05	0.031219015
36	0x3cde773b	0.027156463
37	0x3d0b8131	0.034058753
38	0xbd2d4523	-0.042302262
39	0x3d649a04	0.055810943
40	0xbbb906cb	-0.0056465617
41	0x3bb03eaf	0.005378566
42	0xbd4fa645	-0.050695676
43	0xbd66bc0f	-0.05633169
44	0x3d0b7e4d	0.034055997
45	0xbd355d3d	-0.044278372
46	0x3c8af352	0.016961727
47	0xbd7304ad	-0.05933063
48	0xbc824ad4	-0.015904821
49	0xbc8441cb	-0.016144654
50	0xbd2d52e6	-0.042315386
51	0xbcc99cf8	-0.024610981
52	0x3c0a11cb	0.008427094
53	0xbcf40348	-0.02978672
54	0x3b67e914	0.0035386728
55	0x3c870006	0.016479503
56	0x3c86ec13	0.01646999
57	0xbc643f4c	-0.013931107
58	0xbcf2d79b	-0.029643824
59	0xbcd663e9	-0.026170688
60	0xbcf0e38f	-0.029405383
61	0x3d751ad4	0.05984004
62	0x3d4f2e77	0.05058142
63	0xbd6ab0ab	-0.05729739
64	0xbc00fd50	-0.007872894
65	0xbceb050a	-0.028688926
66	0xbbd0be99	-0.0063703773
67	0x3d575e3d	0.052580107
68	0x3c993840	0.01870358
69	0x3b4fd565	0.0031712886
70	0xbcb6462f	-0.022250263
71	0x3c18b2d5	0.009319981
72	0x3cdbd003	0.026832586
73	0xbcea8d1c	-0.02863174
74	0x3c1b1752	0.009466009
75	0x3d42fdd6	0.047605358
76	0xbd72115d	-0.05909859
77	0x3d353378	0.044238538
78	0xbc874ce9	-0.016516166
79	0xbd1d0949	-0.038338933
80	0xbd7df92f	-0.062005218
81	0xbc95fd49	-0.018309252
82	0xbd65e8e4	-0.056130305
83	0xbc9d031f	-0.019166527
84	0xbd55f5c5	-0.052236337
85	0x3cfda1d7	0.03096096
86	0x3ceac465	0.028658101
87	0xbc74d505	-0.014943366
88	0x3c80f3d0	0.015741259
89	0xbd794160	-0.060853362
90	0x3d4c0230	0.049806774
91	0x3d6ee608	0.058324844
92	0x3cb78e04	0.022406586
93	0x3bb352d7	0.0054725218
94	0x3c0ed310	0.008717313
95	0xbd400d49	-0.04688767
96	0x3d6180a0	0.055054307
97	0xbd27a7b4	-0.04093142
98	0xbd6ef8ad	-0.058342624
99	0x3cf3d17e	0.02976298
100	0xbd308ece	-0.04310494
101	0xbd0b27b5	-0.033973414
102	0xbd466f9e	-0.04844629
103	0x3cb58f14	0.022162952
104	0xbd79b1fc	-0.060960755
105	0xbc36cda8	-0.011157431
106	0xbd2ad599	-0.04170761
107	0xbd0ddbce	-0.03463345
108	0xbc8736cf	-0.016505627
109	0xbd6e9a2d	-0.058252502
110	0x3bc64b4e	0.0060514575
111	0xbca27b84	-0.019834287
112	0x3d3fc9e4	0.046823397
113	0x3d489cce	0.048977666
114	0x3d226465	0.039646525
115	0x3cc40d2c	0.023932062
116	0xbd530a9e	-0.051523797
117	0xbd651527	-0.055928376
118	0xbd675a6c	-0.056482717
119	0x3d0b4352	0.03399975
120	0x3cd59237	0.026070697
121	0xbd4ecec6	-0.050490163
122	0x3d6dda13	0.0580693
123	0xbcb97f10	-0.022643596
124	0x3d176766	0.036963843
125	0xbcabb544	-0.020960458
126	0xbbe72347	-0.007053766
127	0xbccd059d	-0.02502709
128	0xbd502d1f	-0.05082428
129	0xbd3fde09	-0.04684261
130	0x3b132332	0.0022451398
131	0x3d5ddbe6	0.05416479
132	0xbd0a5ed9	-0.03378186
133	0xbd77b598	-0.060475916
134	0xbbc33763	-0.0059575303
135	0xbcbb6846	-0.02287687
136	0xbd634607	-0.055486705
137	0xbc42e9d2	-0.011896567
138	0x3d34527e	0.044023983
139	0xbd7b570c	-0.06136231
140	0x3d0a3500	0.03374195
141	0xbc407bb9	-0.011748248
142	0xbca082c2	-0.0195936
143	0xbc1a20fc	-0.009407278
144	0xbd544abe	-0.051829092
145	0x3d358373	0.044314813
146	0xbd6e18de	-0.058129184
147	0x3d5356cc	0.051596448
148	0x3d01e2bd	0.031710375
149	0xbc25632d	-0.010094446
150	0x3c151d6a	0.009101251
151	0x3d7e26a9	0.062048588
152	0x3d21609b	0.03939877
153	0xbd175459	-0.036945675
154	0x3bcc7453	0.006239453
155	0xbd80b77a	-0.062849954
156	0x3d055845	0.032554884
157	0xbceae959	-0.028675722
158	0x3d3baada	0.045817234
159	0xbba46f0b	-0.00501812
160	0x3c4b3e21	0.012404949
161	0x3cae5e19	0.021285104
162	0xbc4b1cae	-0.0123969745
163	0x3c247f9e	0.010040192
164	0xbc8fe745	-0.017566333
165	0x3d35e68f	0.04440933
166	0xbc8609e3	-0.016362136
167	0xbc56ca07	-0.0131096905
168	0xbc6fe16c	-0.014641147
169	0x3d115a2e	0.035486393
170	0xbd45e16f	-0.048310693
171	0xbc93d58d	-0.018046165
172	0xbc990e11	-0.018683465
173	0x3d06450f	0.032780703
174	0xbc5f8112	-0.013641613
175	0x3d01d389	0.031695876
176	0x3d78eb2a	0.060771145
177	0x3ca96527	0.020678116
178	0xbd816958	-0.06318921
179	0x3d011a16	0.031519018
180	0x3d740c0b	0.059581798
181	0xbd21dd4e	-0.039517693
182	0x3d0109fa	0.031503655
183	0xbd340121	-0.04394639
184	0x3b1a142c	0.0023510559
185	0x3c5b09ff	0.0133690825
186	0x3b903c8c	0.004401749
187	0xbd613534	-0.05498238
188	0x3be1ccfa	0.00689089
189	0x3d71b33c	0.05900882
190	0xba2b3958	-0.0006531677
191	0xbc847161	-0.016167345
192	0xbb26eae4	-0.0025469596
193	0xbd408b83	-0.04700805
194	0xbcf80440	-0.030275464
195	0xbcb7bcb7	-0.022428853
196	0x3baa3e4d	0.005195415
197	0xbcd0527f	-0.025429962
198	0xbd477f83	-0.04870559
199	0x3d237e21	0.039915208
200	0xbd7a7353	-0.061145138
201	0xbd5050c4	-0.050858274
202	0xbd0c39d9	-0.034234855
203	0x3d16eaf1	0.03684515
204	0x3ce263b0	0.027635425
205	0x3cf05dbf	0.029341577
206	0xbd64bdef	-0.055845197
207	0x3d08d69f	0.033407804
208	0xbcda368e	-0.026637342
209	0x3c9842d1	0.018586548
210	0xbd089697	-0.03334674
211	0x3d649e5d	0.05581509
212	0xbcef44d7	-0.02920763
213	0xbc6299f8	-0.013830654
214	0xbc4d4ab8	-0.012530021
215	0xbd658a6a	-0.056040205
216	0x3d62d352	0.055377312
217	0x3d53431a	0.051577665
218	0xba0d419b	-0.0005388499
219	0xbd37ed72	-0.04490418
220	0x3bb5ba49	0.0055458886
221	0xbd68397a	-0.05669544
222	0x3ce7c9a3	0.02829439
223	0xbc47ca9a	-0.0121943
224	0xbd351927	-0.04421344
225	0xbcc4e157	-0.024033232
226	0x3d51ca08	0.051218063
227	0x3d5d8915	0.05408581
228	0x3d584766	0.052802466
229	0xbcdb4dc0	-0.026770473
230	0x3d6e4870	0.05817455
231	0xbd362d9d	-0.044477094
232	0x3d3a7122	0.045518048
233	0x3cdf2979	0.027241455
234	0x3d5c1529	0.053731117
235	0x3d562e7b	0.05229042
236	0x3b8c77d7	0.004286747
237	0x3d68feea	0.05688373
238	0xbc60cfac	-0.013721388
239	0x3d701b45	0.058619756
240	0xbc9e6ae7	-0.019338084
241	0x3cf5d519	0.03000884
242	0x3afb2f11	0.0019163807
243	0x3ba5db8c	0.0050615724
244	0xbd1c7bd5	-0.038204033
245	0x3d1d1e82	0.038359173
246	0xbd408d36	-0.04700967
247	0xbbbb23f2	-0.005711072
248	0x3d49e04a	0.049286164
249	0xbbd51a23	-0.00650336
250	0xbc2c93e9	-0.010533311
251	0xbd6bfb52	-0.057612725
252	0x3d051709	0.03249267
253	0xbcc6d4d4	-0.024271406
254	0x3cc056e1	0.023478927
255	0x3b0f77b4	0.0021891417

bias f4 [256]
0	0xbd50205b	-0.050812107
1	0xbd8663c6	-0.06561999
2	0x3be3ce56	0.0069520874
3	0x3d3b70fd	0.04576205
4	0x3d1227ed	0.035682607
5	0xbc7ccd5b	-0.01542982
6	0x3c00cebd	0.00786179
7	0xbd0c0f36	-0.034194194
8	0xbc12c980	-0.008959174
9	0xbd7754d9	-0.06038365
10	0xbd82236e	-0.06354414
11	0x3d59c7b6	0.053168975
12	0x3cc2094c	0.023686074
13	0x3b56b05c	0.0032758927
14	0x3c3137ff	0.010816573
15	0xbd57b0c9	-0.05265883
16	0xbd3ae8a0	-0.045632005
17	0x3d0f66f2	0.035010286
18	0xbd5e8fd4	-0.054336384
19	0x3d48de93	0.04904039
20	0xbd1fd073	-0.039017152
21	0xba780eff	-0.0009462684
22	0x3ca04be6	0.019567441
23	0x3d46e7b6	0.04856082
24	0x3cdd2d9a	0.026999284
25	0xbb3d5d4b	-0.0028894718
26	0x3b84c184	0.004051389
27	0xbb90f080	-0.004423201
28	0xbc08ca5c	-0.0083490275
29	0x3d3febc6	0.04685571
30	0xbd65d90f	-0.056115206
31	0xbd4e4e22	-0.050367482
32	0xbd3df57a	-0.046376683
33	0xbd4067ce	-0.046973996
34	0xbc6de5dd	-0.014520136
35	0x3c589c97	0.013220928
36	0xbcdd8a3d	-0.027043456
37	0xbd1b6a0b	-0.037942927
38	0x3c22f6b6	0.009946516
39	0xbd7d6433	-0.061863136
40	0xbced0cfa	-0.028936852
41	0x3d6b5a8b	0.057459395
42	0x3c8257db	0.015911033
43	0x3d02a341	0.031893972
44	0xbd522854	-0.05130799
45	0xbd018fd1	-0.031631295
46	0x3c89c8dd	0.016819412
47	0x3d2bdc09	0.04195789
48	0xbce2c643	-0.02768243
49	0xbc6319a3	-0.013861093
50	0xbd64d6af	-0.0558688
51	0xbcba4512	-0.022738013
52	0xbd18e0a0	-0.037323594
53	0xbd769492	-0.06020028
54	0xbbc99300	-0.006151557
55	0x3cb53a0c	0.022122405
56	0xbbaff8c7	-0.0053702327
57	0xb9fa53b8	-0.0004774609
58	0xbc5fe728	-0.013665952
59	0x3c5adaca	0.013357827
60	0xbd40debc	-0.047087416
61	0x3d293487	0.04130986
62	0xbce57933	-0.028011894
63	0xbd1ca84a	-0.03824643
64	0x3cdc21d3	0.026871597
65	0xbba5a28a	-0.0050547766
66	0xbd078358	-0.033084244
67	0x3b84eecc	0.004056787
68	0xbc5d8187	-0.013519651
69	0xbd38b2f7	-0.04509255
70	0x3d5522ef	0.05203527
71	0xbd5326e3	-0.051550757
72	0x3b2159fc	0.0024620285
73	0xbc1e5c9e	-0.009665636
74	0xbc71d49a	-0.014760161
75	0xbc5cf397	-0.013485811
76	0xbc74c307	-0.014939076
77	0xbc1b8fe8	-0.009494759
78	0xbd1ef295	-0.038805563
79	0x3d124dd5	0.035718758
80	0x3d52e248	0.05148533
81	0xbd78b5e3	-0.060720336
82	0xbceb6522	-0.028734747
83	0xbd606098	-0.05477962
84	0xbd05e08d	-0.03268485
85	0x3c80b3a3	0.015710657
86	0x3cb230ed	0.021751845
87	0xbd17fa21	-0.037103776
88	0xbd1c6e83	-0.03819133
89	0x3c81f7e3	0.015865272
90	0xbd6f4c05	-0.058422107
91	0x3c35b248	0.011089869
92	0xbc8aae5d	-0.016928846
93	0x3b0e520a	0.002171638
94	0xbd5ca1d2	-0.05386526
95	0xbd0d6eea	-0.034529604
96	0xbd77f15b	-0.06053291
97	0x3d3da340	0.046298265
98	0x3cfeaac9	0.031087296
99	0x3be5bc16	0.007010947
100	0xbd3611fc	-0.044450745
101	0x3ca3b557	0.01998393
102	0xbc76f66d	-0.015073401
103	0xbcb1a98f	-0.021687297
104	0x3d223fe1	0.0396117
105	0x3d110d56	0.03541311
106	0xbd236755	-0.039893467
107	0x3cf47b98	0.02984409
108	0xbd028f0e	-0.03187471
109	0x3d0aec65	0.03391685
110	0xbbc25748	-0.005930815
111	0x3d09aef3	0.03361411
112	0x3bd44e8c	0.00647909
113	0xbcfed4eb	-0.031107387
114	0xbc870188	-0.016480222
115	0xba263513	-0.0006340306
116	0x3d369f77	0.04458567
117	0x3c93db78	0.018048987
118	0x3bc1a65b	0.0059097237
119	0xbd40ffe8	-0.04711905
120	0xbcf7691f	-0.030201493
121	0x3d6dd7e1	0.058067206
122	0xbd56d474	-0.052448705
123	0xbc6d13b1	-0.014470027
124	0xbd2eaaec	-0.042643473
125	0x3d1160f8	0.035492867
126	0x3cfb6076	0.030685645
127	0x3b8be0a1	0.004268721
128	0xbcf34acb	-0.02969875
129	0xbc7e11db	-0.015507187
130	0x3c726ca9	0.014796414
131	0xbc705377	-0.014668337
132	0xbd61c530	-0.055119693
133	0xbd6b3dd7	-0.057432022
134	0x3cd41311	0.025887998
135	0x3cb373ae	0.021905746
136	0x3d086db1	0.033307735
137	0x3c2433da	0.010022128
138	0x3c1a77b6	0.009427955
139	0x3cd1882c	0.025577627
140	0x3c74a7ea	0.014932612
141	0x3d5c2872	0.05374951
142	0x3d56ede8	0.05247298
143	0xbc8b09cc	-0.016972445
144	0x3d0ab640	0.033865213
145	0xbc4159b1	-0.011801169
146	0xbd244c22	-0.04011167
147	0x3c4774ca	0.012173841
148	0xbd0c2239	-0.034212325
149	0x3c90b32c	0.01766356
150	0x3b40e7ea	0.0029435107
151	0xbd5d34b0	-0.054005325
152	0x3d37f69a	0.044912912
153	0x3c36e909	0.011163958
154	0xbd723e99	-0.05914173
155	0x3d4ddc7d	0.050259102
156	0xbd0cc087	-0.034363296
157	0x3d0810f8	0.033219308
158	0xbd400614	-0.046880797
159	0xbc810881	-0.015751125
160	0x3d302010	0.042999327
161	0x3d56de95	0.052458365
162	0xbd16391d	-0.03667556
163	0x3d60d9de	0.054895274
164	0xbc8ee17a	-0.0174415
165	0xbce4999a	-0.027905274
166	0xba82478f	-0.0009939539
167	0x3cd988e8	0.02655454
168	0x3d5bcaa9	0.05366007
169	0xbce89792	-0.028392587
170	0x3cebbd39	0.028776752
171	0xbd34d4a7	-0.044148114
172	0x3d35d7e7	0.044395354
173	0x3d54919e	0.051896684
174	0xbc725512	-0.01479079
175	0x3b1f232f	0.0024282446
176	0x3d1fff9e	0.039062135
177	0xbd2269f3	-0.039651822
178	0x3cdc698b	0.026905796
179	0xba799658	-0.0009520999
180	0xbad04b8c	-0.0015891655
181	0x3c1009fc	0.008791443
182	0xbd4badf9	-0.04972646
183	0xbd28cfc9	-0.041213784
184	0x3d87b099	0.0662548
185	0x3c868dbd	0.016425008
186	0xb7386352	-1.0990379e-05
187	0xbd309ec1	-0.04312015
188	0xbc98329c	-0.01857882
189	0x3c02cd10	0.007983461
190	0x3d2ec0b7	0.042664256
191	0xbd4fa02f	-0.050689872
192	0xbd277994	-0.04088743
193	0x3d4aedc6	0.049543165
194	0xbd1bc429	-0.03802887
195	0xbc1f3fcb	-0.009719799
196	0x3bbdc561	0.0057913517
197	0xbd76b3a4	-0.060229912
198	0x3d0f3823	0.034965646
199	0xbbd41f93	-0.0064734905
200	0xbcb50ac7	-0.022099866
201	0x3d4e0d0c	0.05030541
202	0xbd371021	-0.044693116
203	0x3d2fa034	0.04287739
204	0x3d618fa9	0.055068646
205	0x3d0291f0	0.031877458
206	0xbd2143eb	-0.039371412
207	0xbc5ef8c6	-0.013609117
208	0xbcc80a05	-0.02441884
209	0x3b9b78f9	0.0047446457
210	0x3d532ab8	0.05155441
211	0xbd074a4c	-0.03302984
212	0x3c866387	0.01640488
213	0xbd57872f	-0.052619155
214	0xbc74abb0	-0.014933512
215	0x3b726563	0.00369867
216	0xbcfdf386	-0.03099991
217	0xbd1ced4a	-0.038312234
218	0xbccb5ff9	-0.024826037
219	0x3c887707	0.01665832
220	0x3d31b089	0.043381248
221	0x3d218cf1	0.039441053
222	0x3d328fa8	0.043594033
223	0xbca63636	-0.020289522
224	0x3b848095	0.0040436485
225	0x3cf86c78	0.03032516
226	0xbcb1744c	-0.0216619
227	0x3d12f18d	0.035874892
228	0x3d0b7972	0.034051366
229	0x3d5b6fda	0.053573467
230	0xbc86123f	-0.016366122
231	0xbd7d4478	-0.061832875
232	0x3d667702	0.05626584
233	0xbd6dad21	-0.058026437
234	0xbbadde5d	-0.005306049
235	0x3d2f9f62	0.04287661
236	0xb9ad27d9	-0.0003302682
237	0xbbc47d06	-0.0059963493
238	0xbc9a53e3	-0.018838828
239	0xbc011cee	-0.0078804325
240	0x3d00fb5b	0.03148971
241	0xbd2ca858	-0.042152733
242	0xbd38c709	-0.04511169
243	0xbcb2a818	-0.021808669
244	0xbd4d825e	-0.050173156
245	0x3c51dae9	0.01280854
246	0xbd26db83	-0.040736686
247	0xbd76163c	-0.060079798
248	0x3d8bce99	0.06826515
249	0x3d6defea	0.058090128
250	0xbd7b2f00	-0.06132412
251	0x3d6d9e18	0.058012098
252	0x3d6db8ff	0.058037754
253	0x3c86b914	0.016445674
254	0x3c31ea3e	0.01085907
255	0x3c23cb9b	0.009997274

weight f4 [2, 256]
0	0xbd269228	-0.04066673
1	0xbcafb366	-0.021447849
2	0xbd184286	-0.037172817
3	0xbcdd2d04	-0.026999004
4	0x3c74da19	0.014944577
5	0x3d08ac30	0.033367336
6	0x3c41ec26	0.011836087
7	0xbc9b3d5b	-0.018950155
8	0xbbb8100d	-0.005617148
9	0xbcdc6d55	-0.026907602
10	0xbd73dacc	-0.059534833
11	0xbd42a72a	-0.0475227
12	0xbcfb3d3f	-0.030668853
13	0xbc252012	-0.010078447
14	0xbd1dc523	-0.038518082
15	0xbc1bacfb	-0.009501691
16	0x3d26c229	0.04071251
17	0x3c98b75a	0.018642116
18	0xbb90d92e	-0.004420421
19	0x3c7f9896	0.015600344
20	0xba85afbf	-0.0010199471
21	0xbca74abc	-0.020421378
22	0xbcb93534	-0.022608377
23	0x3c8145fb	0.01578044
24	0x3bf7486a	0.007546474
25	0x3c540a65	0.012941931
26	0xbb96b891	-0.0045996387
27	0x3bbd69d5	0.0057804384
28	0x3c4fa412	0.012673395
29	0x3c2fa63c	0.010720786
30	0xbd0b2758	-0.033973068
31	0xbd604ecb	-0.054762643
32	0xbcb228bb	-0.021747937
33	0x3d1c3431	0.03813571
34	0x3cad565a	0.02115934
35	0x3d0dacca	0.034588613
36	0x3b897e4a	0.004195963
37	0x3d6a43e6	0.05719366
38	0xbcb38b94	-0.021917142
39	0x3bfe64ba	0.0077634724
40	0x3d50f3ba	0.051013686
41	0xbd5626f5	-0.052283246
42	0x3c9ee9e5	0.019398639
43	0xbcdeb810	-0.027187377
44	0xbcd41ecd	-0.025893593
45	0xbcab5bbc	-0.020917766
46	0x3cda319c	0.026634984
47	0xbc3752f3	-0.01118921
48	0x3d4143e0	0.04718387
49	0x3d114a73	0.03547139
50	0xbcd79fa4	-0.02632124
51	0x3cce8457	0.025209589
52	0xbd812720	-0.063062906
53	0x3d568c75	0.052380044
54	0xbd8143f1	-0.06311787
55	0xbc004ca3	-0.007830772
56	0xbcff030e	-0.031129386
57	0x3d51da02	0.0512333
58	0x3bc789d6	0.0060894294
59	0xbd19591f	-0.037438508
60	0xbc396593	-0.011315721
61	0x3cce49c0	0.025181651
62	0xbd0f1552	-0.034932442
63	0xbc50d426	-0.012745893
64	0x3d1ed74c	0.03877954
65	0x3d656494	0.056004122
66	0x3d1b7c14	0.037960127
67	0x3c957ba7	0.018247439
68	0x3c046b77	0.008082262
69	0xbd04628a	-0.032320537
70	0xbd4926bf	-0.049109217
71	0xbc918958	-0.017765686
72	0x3caa2dcd	0.020773793
73	0x3c865900	0.01639986
74	0xbda8fac5	-0.082509555
75	0x3d306f9c	0.04307519
76	0xbd08648a	-0.033299007
77	0x3bcd93a7	0.006273705
78	0xbc696004	-0.014244083
79	0xbd346420	-0.0440408
80	0xbd05e014	-0.0326844
81	0xbd419bfa	-0.04726789
82	0xbd5ce92b	-0.053933304
83	0x3bdbff05	0.0067137503
84	0x3d045de3	0.0323161
85	0x3bfaa709	0.0076493067
86	0xbbafd63f	-0.0053661163
87	0xbd34d587	-0.044148948
88	0xbd1cc642	-0.03827501
89	0x3c594c4c	0.0132628195
90	0x3b7e2526	0.0038779466
91	0x3d006ffd	0.0313568
92	0x3cea5fda	0.028610159
93	0x3b951d4a	0.0045506107
94	0xbc8af653	-0.01696316
95	0x3c98ae0a	0.018637676
96	0xbd37e273	-0.044893693
97	0xbbf74830	-0.007546447
98	0xbc83ac17	-0.01607327
99	0x3d3110c3	0.043228876
100	0x3bdfc201	0.006828547
101	0xbc7a9dc3	-0.015296402
102	0xbd49e5a3	-0.049291264
103	0xbd226134	-0.03964348
104	0xbd098466	-0.03357353
105	0x3d101fca	0.035186566
106	0xbcb1780b	-0.021663686
107	0xbc7582f6	-0.014984837
108	0xbd5056a9	-0.050863896
109	0xbc40cc3f	-0.011767446
110	0x3cfc0548	0.030764237
111	0xbd47660a	-0.048681296
112	0xbb466771	-0.0030274058
113	0xbd56531f	-0.052325364
114	0x3d493594	0.04912336
115	0xbc069f7f	-0.008216738
116	0x3d6428f4	0.05570312
117	0x3d1b1ef8	0.03787133
118	0x3cc96954	0.024586357
119	0xbd739859	-0.059471462
120	0x3cccef34	0.025016405
121	0xbd1c6298	-0.038179964
122	0xbc56da09	-0.013113507
123	0x3d0a5368	0.03377095
124	0xbc114399	-0.008866214
125	0x3d058c5b	0.032604557
126	0xbd6f2e89	-0.05839399
127	0x3a9cf1e8	0.0011973949
128	0xbc403a65	-0.011732672
129	0x3c2cca69	0.010546305
130	0x3c689b06	0.014197117
131	0x3cbea9ea	0.02327438
132	0xbd4e3b20	-0.050349355
133	0xbd10ba95	-0.03533419
134	0xbd329134	-0.043595508
135	0xbcc622ca	-0.02418651
136	0x3c11174f	0.008855655
137	0x3cda8682	0.026675466
138	0x3d4cbba5	0.04998364
139	0xbd91ed88	-0.071253836
140	0xbce7296d	-0.028217996
141	0x3ca5cbe1	0.020238819
142	0xbd5f6024	-0.054535046
143	0x3c0e159c	0.008672144
144	0x3d5f3b99	0.054500196
145	0x3d2a2688	0.041540653
146	0xbd3d7693	-0.04625566
147	0x3d2d87de	0.0423659
148	0x3c97d0ea	0.018532235
149	0x3d4620ac	0.048371002
150	0xbd62a366	-0.05533161
151	0xbd65745b	-0.05601917
152	0xbc1adab2	-0.009451555
153	0x3d019227	0.031633522
154	0xbd001a93	-0.031275343
155	0xbbb25e16	-0.005443345
156	0x3d0efcc7	0.034909036
157	0xbcce7157	-0.025200529
158	0xbd0a6bc6	-0.033794187
159	0xbd0db241	-0.034593824
160	0xbb7cab54	-0.0038554268
161	0x3c910a93	0.017705237
162	0x3d2ba386	0.041903995
163	0x3c1ca029	0.0095596695
164	0x3c210b5c	0.009829368
165	0xbcb697d3	-0.022289192
166	0x3d5c1bdf	0.053737517
167	0xbc78956a	-0.015172342
168	0xbb804a71	-0.003915124
169	0x3d405675	0.04695745
170	0x3d101cc7	0.035183694
171	0x3d4a722f	0.0494253
172	0xbd22087a	-0.039558865
173	0xbd4e2d59	-0.050336216
174	0x3c2cd2eb	0.010548334
175	0x35816b18	9.642417e-07
176	0x3b05ea78	0.0020433944
177	0x3bf26937	0.0073977965
178	0xbcb7d534	-0.02244053
179	0xbd3746fa	-0.044745423
180	0x3d96f75e	0.073714
181	0x3d60bd9f	0.054868337
182	0x3bcb1342	0.006197364
183	0xbca15987	-0.01969601
184	0x3d0cb55c	0.034352645
185	0x3d6fd38b	0.058551352
186	0x3d57b180	0.05265951
187	0x3c98efb0	0.01866898
188	0x3d1467b3	0.036231708
189	0xbd07b103	-0.033127796
190	0x3d5a4643	0.053289663
191	0x3d4c4f28	0.049880177
192	0x3cc14a2b	0.023594936
193	0x3d055ee3	0.032561194
194	0xbdc52001	-0.09625245
195	0x3c0326da	0.008004868
196	0xbc9715e5	-0.018443057
197	0xbc7351ff	-0.014851092
198	0xbba295e4	-0.004961716
199	0x3cbd0f63	0.023078626
200	0xbc601561	-0.013676972
201	0x3c7c1958	0.015386902
202	0xbca10240	-0.019654393
203	0xbda683b0	-0.08130586
204	0x3d68c7de	0.056831233
205	0xbd560742	-0.052253015
206	0xbbf0ead7	-0.007352214
207	0xbcfb42ac	-0.03067144
208	0xbd0e4891	-0.034737173
209	0xbc07b75f	-0.008283465
210	0xbcf8efa7	-0.030387713
211	0x3c186aec	0.009302836
212	0xbd54d1a5	-0.051957745
213	0x3d41e516	0.047337614
214	0xbbb38dca	-0.005479549
215	0x3d1c5dff	0.03817558
216	0x3afd9d03	0.0019349161
217	0x3c2b4e03	0.010455611
218	0xbd0c5aef	-0.03426641
219	0xbd79f74d	-0.06102686
220	0x3d16b6d4	0.036795452
221	0xbd990bbc	-0.07472941
222	0x3d0c33e5	0.034229178
223	0xbced2dd8	-0.028952524
224	0x3c49f5ac	0.012326639
225	0xbd314405	-0.04327776
226	0x3d00563c	0.03133224
227	0xbc83a2b0	-0.016068786
228	0xbd144caf	-0.036205944
229	0xbc426aa5	-0.011866246
230	0xbd1cdc80	-0.038296223
231	0x3d2dcd63	0.0424322
232	0x3bb0fac3	0.005400987
233	0x3cbdd743	0.023173934
234	0x3ca9fd4b	0.020750662
235	0xbd451c12	-0.048122473
236	0x3d1321e2	0.035920985
237	0xbba4c758	-0.0050286464
238	0xbcd9c230	-0.026581854
239	0x3d4ae724	0.04953684
240	0xbcc9bc73	-0.024625992
241	0x3aa8a330	0.0012866016
242	0xbd6c774f	-0.05773097
243	0x3d0d4043	0.034485113
244	0xbd50d258	-0.05098185
245	0x3d19af13	0.03752048
246	0x3b373f6c	0.0027961386
247	0x3d6628c0	0.056191206
248	0xbd8a0e57	-0.06741016
249	0xbc09f9ce	-0.0084213745
250	0xbbd6dc29	-0.006557007
251	0xbdaf8bb5	-0.08571569
252	0xbb3b3dc1	-0.0028570744
253	0xba7b9ff4	-0.0009598725
254	0x3d3f181d	0.046653856
255	0xbcd37709	-0.025813596

bias f4 [2]
0	0x3bf4e652	0.0074737454
1	0x3ddb4e7b	0.10708328
