notebooks/spaceship-titanic.pt (torch, 85031 bytes, 6 tensors)

weight f4 [128, 27]
000000 36 68 0d bd bf 7c 57 ba 6e d5 d3 3c 7d 20 4d bd
       -0.03452321 -0.0008220188 0.025858607 -0.05007981
000010 d6 68 12 bb 58 23 02 3d 2e d8 1a 3d d1 f9 87 3c
       -0.002234032 0.031771988 0.03780382 0.016598614
000020 c0 b0 b3 3c 73 d3 46 37 4c 3f 1a 3d cd e4 98 bc
       0.021934867 1.18509515e-05 0.03765802 -0.018663788
000030 8b de 46 bd 99 9c a8 bc 61 65 a6 bc b7 4f 32 3d
       -0.048552077 -0.020582484 -0.020312013 0.043533053
000040 d0 d6 1b 3d 0b 79 22 bd 68 b6 60 bc b2 71 3e 3d
       0.038046658 -0.039666217 -0.013715364 0.046495147
000050 c6 43 f7 bc 30 b0 86 3c 7b d3 1a 3d a3 02 8b bc
       -0.030183684 0.016441435 0.03779934 -0.01696903
000060 83 68 d2 3c f0 a8 c6 bc 50 59 ee bc e1 ec 13 3b
       0.0256846 -0.024250478 -0.029095322 0.002257161
000070 1e e9 52 bc 2a 37 4a bc d2 55 44 3d 3e 4c f5 bc
       -0.012872962 -0.012342254 0.047933407 -0.029943582
000080 93 cf 58 3d 7a d6 aa b7 44 e6 b7 bb 42 71 37 bd
       0.052932333 -2.0365453e-05 -0.0056121666 -0.044785745
000090 8b ca 69 3c a0 f0 0e bd bd f9 6b bc 7d c2 d9 bc
       0.014269481 -0.034897447 -0.014402804 -0.026581997
0000a0 5a 3a 0c bc af c5 42 bc e3 ba 9e bc b2 2c ac bc
       -0.008558834 -0.011887952 -0.019376224 -0.021017406
0000b0 53 42 c2 bc 57 ec 9f 3c 55 82 50 bc 10 b4 3c bd
       -0.023713266 0.019521875 -0.012726386 -0.04607016
0000c0 b2 f1 e5 3c 04 70 23 bd a9 24 86 3b dd 3e 33 3d
       0.02806935 -0.03990175 0.0040937257 0.043761123
0000d0 48 21 10 bd 9d 79 32 3d 88 72 81 bd 87 da 39 bc
       -0.03518799 0.04357301 -0.06320673 -0.011343605
0000e0 33 5a 93 bc 94 e9 90 bc a3 88 98 bc 3b a8 3f b6
       -0.017987346 -0.017689504 -0.018619841 -2.855914e-06
0000f0 12 11 7a 3d 34 96 35 bd 14 6f 4c bd fb f5 a6 bc
       0.061051436 -0.044332698 -0.04991062 -0.020380965
000100 f4 27 21 bd c7 1b ea 3c b3 f6 8b 3c d8 f3 ae 3c
       -0.039344743 0.028577698 0.017085409 0.021356508
000110 fc b6 02 3d a2 23 74 bb 40 ca 42 3d f4 36 ca 3b
       0.03191279 -0.0037252684 0.047556162 0.0061711017
000120 84 b1 b1 3c 36 19 40 3c 7d 1e 52 3c fe 98 3d bd
       0.021691091 0.011724761 0.012824652 -0.046288483
000130 eb ad 7c bc 82 be 69 3c 59 ae d1 bc f4 bd 41 bd
       -0.015422325 0.014266612 -0.02559583 -0.047300294
000140 c8 2b 9e bc e3 81 4f bd 5c 8e 12 3d 89 20 43 3a
       -0.019307986 -0.05066098 0.035780296 0.0007443508
000150 b2 5a f5 bc 2e 59 5e bc dc 38 0f bc 9c d2 e8 3c
       -0.029950473 -0.013571067 -0.008741584 0.028420739
000160 5b 94 8d bc 8f 41 15 bd fe c6 59 3b b5 61 17 3c
       -0.017282655 -0.036439475 0.003323018 0.009239604
000170 59 42 23 bd e7 93 c2 3b 9b 24 e1 3c e7 21 f8 bc
       -0.039858196 0.0059380415 0.027483275 -0.030289603
000180 f6 94 c4 3c 44 b7 05 3d d8 67 27 3c 77 75 90 bc
       0.023996811 0.03264548 0.010217629 -0.017634137
000190 97 a3 46 bd 58 70 a8 bc 8c 5f 04 3d 54 e8 25 bd
       -0.048495855 -0.020561382 0.032317683 -0.04050477
0001a0 df 5e 22 bd 41 e5 c3 3c ab 13 ae 3c 86 17 f1 3a
       -0.039641257 0.023913028 0.021249613 0.0018393851
0001b0 d4 a8 7e bc 32 e9 c2 bc ec 63 44 bc a7 f1 23 3c
       -0.015543181 -0.023792837 -0.011986714 0.010006345
0001c0 47 32 0e 3d 19 46 76 bd 3e 76 21 3d db cb dd 3c
       0.034715917 -0.060125444 0.039419405 0.027074745
0001d0 a3 0a b2 3c f4 e2 41 3d b9 ef 3a bb a1 f0 3d bd
       0.021733588 0.04733558 -0.0028524233 -0.04637206
0001e0 ad 24 b3 3c dd b1 3c bd 07 c7 5f 3c 61 96 2a bd
       0.021868074 -0.04606806 0.013658292 -0.04164732
0001f0 31 3d a0 3c 86 70 33 3d 92 80 3a bd 9b 0f 45 3b
       0.019560428 0.043808483 -0.04553277 0.0030069116
000200 36 16 cf 3c fa 91 aa bb 59 18 8e 3c e4 96 17 bd
       0.025279146 -0.00520539 0.017345594 -0.037009135
000210 1a e1 0b 3d fd 28 b1 3c ea da 05 bd 43 66 54 bd
       0.03415022 0.02162599 -0.032679476 -0.051855337
000220 f9 c6 d5 3c 89 f5 02 3d c5 d8 a8 3c d1 81 d6 3c
       0.026095854 0.03197244 0.020611176 0.026184948
000230 24 e5 00 bc 14 d3 28 bc 45 a0 1b bd f8 e8 d4 3c
       -0.007867131 -0.010304231 -0.03799464 0.025989994
000240 7a ee f3 bc aa 45 8e 3c f6 83 ad 3c fe 18 0c 3d
       -0.0297768 0.017367203 0.021181088 0.034203522
000250 f5 6d 9b bc 33 29 1c 3d dd e2 74 bc 17 af cb 3c
       -0.01897333 0.038125228 -0.014946667 0.024863763
000260 7f 52 66 3c 04 db 0a 3d 85 c0 83 3b a6 aa 1d 3d
       0.014057755 0.033900276 0.004020753 0.03849282
000270 db 6f 13 3d 71 0a 1d 3d 30 fd 20 bd ec bd 22 3d
       0.035995346 0.038340036 -0.03930396 0.039731905
000280 e5 a2 1c bd f7 ba 86 3c 3d 48 4e bd 79 93 df bc
       -0.038241286 0.016446574 -0.05036186 -0.027292
000290 68 77 e3 bc e4 f6 e4 3c 65 ae 80 bd 8a 47 5f 3d
       -0.027766898 0.027949758 -0.06283263 0.054511584
0002a0 94 60 d7 3b 21 08 c8 bc 17 d4 b2 3c 40 4f b2 3c
       0.0065727923 -0.024417939 0.021829648 0.021766305
0002b0 e9 63 86 3c 00 2a 0b 3d 99 c9 12 3d 10 2d 8a 3c
       0.016405063 0.0339756 0.03583679 0.01686719
0002c0 7a 12 d2 3c 73 86 19 bd 72 a6 54 bc e3 33 eb bc
       0.025643576 -0.037481736 -0.012979137 -0.028711265
0002d0 51 7f 2d 3c 85 8a 99 3c ef 28 1c bc 92 c4 d2 bc
       0.010589437 0.01874281 -0.009531244 -0.025728498
0002e0 25 8f fa bc fa 03 3e 3d 8a ae f6 bc 3e e3 c1 bc
       -0.030585835 0.04639051 -0.030112524 -0.023667928
0002f0 a6 9a 88 bc 87 c8 7e 3a fe d9 29 bd 85 df f3 bc
       -0.016675305 0.0009719212 -0.04146766 -0.029769668
000300 7c 63 86 bc 4f 8f 87 bc 57 2b 53 bc ae db db bc
       -0.01640486 -0.016547827 -0.012888751 -0.02683815
000310 31 32 4b 3c 04 d7 16 bc cf e5 0c 3d f7 96 74 bc
       0.012402103 -0.009206537 0.03439885 -0.014928571
000320 2f 66 13 3d d5 92 2f 3d 4b f2 2a bc 6b a5 84 3a
       0.03598612 0.04286464 -0.010433744 0.0010120099
000330 af 70 e2 3c 46 a5 fb bc 27 67 0d 3a a2 0d 12 3d
       0.027641622 -0.030718457 0.0005394094 0.035657533
000340 0c 33 dd 3c 46 ac 19 3d ac 34 60 3c 26 fd 8e 3a
       0.02700188 0.03751781 0.013684433 0.0010909184
000350 2a 36 14 3d 5a 64 06 bc 53 5e 99 bc ac 67 27 bd
       0.036184467 -0.008202637 -0.018721735 -0.040870354
000360 35 8a 01 bd e9 55 d9 bc 31 0c 97 3c 45 f8 58 bc
       -0.031625945 -0.026530223 0.01843843 -0.013242786
000370 7b b9 a4 3c 28 ee 8a 3c cd 5c 84 bd e8 69 06 3d
       0.020107975 0.016959265 -0.06463013 0.032815844
000380 42 f8 08 3d 98 bc 9c bc c7 39 3b bd c3 c2 37 bc
       0.033439882 -0.019132897 -0.045709398 -0.011215868
000390 c0 6a 43 3d 0d 56 bd bc fe dc dc 3c 85 75 73 bc
       0.047709227 -0.023112321 0.026960846 -0.014859562
0003a0 00 bd e0 bc e2 ee 35 bd ac 6d 2b 3d 50 15 61 3c
       -0.027433872 -0.04441727 0.041852638 0.013737991
0003b0 9d b3 b4 3c 0e 8b 7f b9 85 da fd bc ca 65 e2 3b
       0.022058303 -0.00024370497 -0.030987987 0.006909107
0003c0 85 37 fd bc 20 19 07 3d 17 df 81 3c 94 dd dd 3d
       -0.030910263 0.032982945 0.015853448 0.10833278
0003d0 9c 7b 5f bc bc 0d 24 bd f7 aa 2d bd d6 76 0a bd
       -0.013640311 -0.04005216 -0.042399373 -0.033804737
0003e0 5c 4e f6 3c 47 fd 3b 3d 69 b5 86 bc 1e 03 38 3c
       0.030066662 0.04589584 -0.016443925 0.011231212
0003f0 ba e7 3e bd 7d ad 25 bd 18 34 0d 3c 5d 09 dc 3c
       -0.04660771 -0.040448654 0.008618377 0.026859934

bias f4 [128]
000000 ef b2 90 36 4e af 0d b5 e2 05 14 36 7d f0 2c 35
       4.312365e-06 -5.2781695e-07 2.2057143e-06 6.442495e-07
000010 be 5f 83 b6 d1 5a 6d b4 4a f7 f1 35 de c8 d6 b2
       -3.91525e-06 -2.2105384e-07 1.802787e-06 -2.5004223e-08
000020 09 85 bc b2 0a 97 15 b5 35 6e 90 b5 be 45 08 b6
       -2.1946578e-08 -5.5726616e-07 -1.076091e-06 -2.0306175e-06
000030 a9 b0 57 b4 89 82 78 35 4f f3 24 35 f6 46 87 35
       -2.0087704e-07 9.2577153e-07 6.144882e-07 1.0078936e-06
000040 db 4c be 36 fb 4c e6 34 88 4c cf 33 c4 03 29 37
       5.6713884e-06 4.289685e-07 9.6531096e-08 1.0074062e-05
000050 39 75 f9 35 07 f5 93 35 7d 5e 9a 35 2c 30 62 34
       1.8586062e-06 1.1023666e-06 1.1501394e-06 2.1065415e-07
000060 88 70 ce 34 de b5 3e 34 ec d1 5e b6 48 6f 09 36
       3.8452367e-07 1.7761292e-07 -3.3202768e-06 2.0479365e-06
000070 8e 69 b9 b4 5e 7a 19 b6 a0 37 e9 b5 e9 89 7b 35
       -3.4535736e-07 -2.2870004e-06 -1.7376042e-06 9.370547e-07
000080 b7 b7 d4 b6 31 b6 89 b5 5e a2 7f 35 29 0e 6e 36
       -6.3394796e-06 -1.026032e-06 9.523118e-07 3.5473006e-06
000090 4b 43 e5 b2 c9 35 46 36 3f c2 19 35 00 31 03 b6
       -2.668971e-08 2.9535606e-06 5.7279607e-07 -1.9549043e-06
0000a0 2e 0c 37 35 1c fa e3 b1 22 c8 a5 36 66 75 97 b5
       6.8190536e-07 -6.6350037e-09 4.9406817e-06 -1.1284544e-06
0000b0 bf fd 44 b6 0c fb dc 33 8f b2 52 b6 fb c6 19 35
       -2.9353976e-06 1.02902135e-07 -3.1396373e-06 5.7286496e-07
0000c0 5c 54 e2 b5 34 5d a8 35 2c 95 84 36 6d e1 2e b6
       -1.6862864e-06 1.2544101e-06 3.9512724e-06 -2.6059236e-06
0000d0 6d 00 aa b4 7f a3 89 b6 9a 30 1f b5 9e b8 8c b5
       -3.1665277e-07 -4.1019516e-06 -5.930284e-07 -1.0484544e-06
0000e0 8c 8c b2 35 dd f4 40 b5 df c3 80 b6 c5 e3 1b b3
       1.3302938e-06 -7.1881897e-07 -3.8374997e-06 -3.6295905e-08
0000f0 7a 5a 49 35 27 3b 14 b6 a6 e6 3f 34 0c 19 df 35
       7.5009996e-07 -2.208815e-06 1.787217e-07 1.6622084e-06
000100 ce 0b 30 33 24 c8 27 34 be 43 2d b6 d5 b8 6b b6
       4.098893e-08 1.5625898e-07 -2.581844e-06 -3.5125315e-06
000110 14 be b4 b6 bc 9e ad b5 56 f1 46 b6 e4 a2 8b b6
       -5.386546e-06 -1.2935702e-06 -2.9644775e-06 -4.161486e-06
000120 45 9b 07 b6 1f 2e 7d 34 49 d4 68 36 de ee 75 36
       -2.0206946e-06 2.357924e-07 3.469426e-06 3.6646884e-06
000130 fc 91 4c 36 76 4f 2e 35 f6 25 85 b3 e4 3c dc 35
       3.0483343e-06 6.493568e-07 -6.2002e-08 1.6408999e-06
000140 2d b6 06 b4 44 49 6b b6 34 c3 b7 b5 bc cc 34 b6
       -1.2545998e-07 -3.5060375e-06 -1.3691374e-06 -2.6941261e-06
000150 67 b0 73 34 f2 e2 f3 b4 9d 9c 75 36 8f 38 b0 b6
       2.2695313e-07 -4.5427402e-07 3.6599006e-06 -5.251793e-06
000160 2c a6 ff b4 c5 3a e0 34 0c 9c ab b6 e0 ab 4e b5
       -4.7618357e-07 4.1766012e-07 -5.1143634e-06 -7.699109e-07
000170 42 b7 76 36 73 16 53 b5 9d 90 4a b5 33 f9 5d b5
       3.6763527e-06 -7.8636293e-07 -7.5461304e-07 -8.269155e-07
000180 a5 58 b8 b6 25 13 5b 36 0e de ce b5 fc dd 64 b5
       -5.493947e-06 3.2644687e-06 -1.5412822e-06 -8.525965e-07
000190 ec 49 c0 35 31 ae ce 35 9c 1f 17 36 d1 46 9a b5
       1.4326629e-06 1.5398892e-06 2.2519152e-06 -1.1494504e-06
0001a0 f1 78 1c 35 e1 05 26 36 8d 9b 81 b5 1d 2f 16 b6
       5.829052e-07 2.473935e-06 -9.65652e-07 -2.2379165e-06
0001b0 88 26 fe b6 db a6 2a b6 f9 3a 32 b6 cd 6e 7c b5
       -7.5742755e-06 -2.5429097e-06 -2.6558394e-06 -9.403855e-07
0001c0 b3 c1 83 35 27 6f 09 36 5a e5 24 b6 86 12 32 b5
       9.816634e-07 2.047929e-06 -2.4571405e-06 -6.633712e-07
0001d0 f5 30 c4 36 12 00 1b b4 68 d6 66 b5 cf ee 2e 36
       5.8469545e-06 -1.4435525e-07 -8.599368e-07 2.6067025e-06
0001e0 ed cf 3c b6 b2 4b 36 b6 a7 ef c7 36 6a 92 44 b6
       -2.8135212e-06 -2.7164174e-06 5.9585614e-06 -2.92915e-06
0001f0 78 9a 2d 36 d4 ac 03 b6 1c 79 0f b6 91 9a 84 b3
       2.5868922e-06 -1.962112e-06 -2.1379155e-06 -6.1748445e-08

weight f4 [128, 128]
000000 2f f8 d1 bb 59 c4 25 bc c9 f2 8c 3c 01 24 ae 3b
       -0.0064077596 -0.010117614 0.017205613 0.0053143506
000010 6d 02 06 3b 94 55 2d bc ec 18 b4 bc 01 fa 17 bc
       0.0020448223 -0.010579485 -0.02198454 -0.009275914
000020 cd be be bc 68 40 b4 3c fc c2 bb 3a b5 a7 48 bc
       -0.02328434 0.022003368 0.0014325078 -0.012247016
000030 f6 15 84 3a 82 b4 43 bc 2e fc a6 bc 33 65 83 3c
       0.0010077346 -0.011944892 -0.02038392 0.016039466
000040 dc dc 25 3c ba 6e 9a 3b 87 3d 27 3c 71 3c ce 3b
       0.010123458 0.0047129067 0.01020754 0.0062938263
000050 56 5a 97 3b 8b e4 d3 3b 6b 87 8b 3c 9c d1 2d bc
       0.004618923 0.0064664534 0.017032346 -0.010609057
000060 33 c9 55 3a 9f 70 21 bc 07 63 96 bb b0 d5 ac bc
       0.0008155286 -0.009853511 -0.0045894417 -0.021097988
000070 25 ac 37 bc 2e 73 ed 3b eb d1 ab bc 71 7c a0 3b
       -0.011210476 0.0072463965 -0.02097412 0.004897647
000080 a5 22 62 3c 4b bd 5e bb 21 c9 89 3c fd 2b 36 3b
       0.013802205 -0.003398734 0.016819539 0.0027797215
000090 72 b0 74 3c ce a2 21 bc 27 1a 70 3c ce 12 39 3c
       0.014934646 -0.009865476 0.014654673 0.011295987
0000a0 3c 89 a4 bb 21 f1 4f bc 78 63 0a 3c 92 04 45 bc
       -0.0050212424 -0.012691767 0.008446567 -0.012025015
0000b0 8e d2 30 3b 47 b7 54 bb ee 40 02 3c 59 03 be bc
       0.002698097 -0.0032457875 0.007950051 -0.023194956
0000c0 c4 be a8 bc 0b 10 ad 3b 0a 71 75 bc 38 21 11 bc
       -0.020598777 0.0052814535 -0.014980564 -0.008858018
0000d0 fc 73 a4 bc d6 e5 98 bc e6 39 0b 3c 80 31 cd bb
       -0.020074837 -0.018664282 0.008497691 -0.0062620044
0000e0 a6 ee 67 bc 5c fa 82 bc 92 6c 49 bc eb 0b 85 bb
       -0.014156019 -0.015988521 -0.012293952 -0.0040602586
0000f0 48 bb 93 bc ad 74 9a bc ab 59 a7 bb 32 96 a7 bc
       -0.018033639 -0.018854463 -0.005107125 -0.02045736
000100 ea 36 92 3c 13 92 85 3c ce 92 02 bc 14 3c b8 3b
       0.01784845 0.016305005 -0.007969571 0.0056223962
000110 bf aa 39 3b 78 97 ea 3a 49 4c a8 bc 17 38 61 bb
       0.0028330532 0.0017897924 -0.020544188 -0.0034365708
000120 b0 f6 c1 3b 25 cd 19 bc fe ba 5c bc 53 d0 00 3b
       0.0059193 -0.009387289 -0.013472317 0.001965542
000130 96 84 47 bc 47 2f 76 3b 17 08 77 3b 78 5b 09 bc
       -0.012177607 0.00375648 0.003769403 -0.008383624
000140 1e b7 8b 3a 4a 6c 50 3c bc 67 a4 bc 67 2c ae 3b
       0.0010659432 0.012721131 -0.020068996 0.0053153518
000150 4f 5b c0 bc 15 44 f4 3b 7b ee 60 bb f0 3b 87 b9
       -0.02348104 0.007454405 -0.0034321833 -0.00025793863
000160 cf 80 82 bc 2b 39 23 bb 0c db a3 3c fe a9 c0 3b
       -0.015930561 -0.00249059 0.02000191 0.0058796396
000170 a4 92 99 bc e6 18 cb 3b d0 fd 84 bc e4 3b b1 bc
       -0.018746682 0.0061980365 -0.016234308 -0.021635003
000180 11 f4 95 bc cb e3 bc 3c c3 3d 40 bc ca 9e 74 3b
       -0.018304856 0.023057839 -0.011733475 0.003732609
000190 0e 13 a4 3c 60 e8 55 3c ed 1c 55 3c dc 8c ac 3c
       0.020028617 0.013055891 0.013007385 0.02106326
0001a0 71 52 68 3c 05 98 19 3c 2e 65 3d 3c fb b4 05 bc
       0.014179812 0.009374623 0.011559768 -0.008160825
0001b0 0f 50 aa 3b 25 92 09 bc 5b 32 b1 bc 3e c0 2f 3c
       0.005197532 -0.00839666 -0.021630457 0.010726986
0001c0 cd c0 67 3c 46 b9 b4 bc af 71 b6 bc ed e3 94 bc
       0.014145088 -0.022061002 -0.022271005 -0.01817509
0001d0 b8 49 0f bc 95 26 bb bc 3c 85 c0 3b 4f 70 80 3c
       -0.008745603 -0.022845546 0.005875258 0.015678553
0001e0 23 b1 2a bb 8a ce b0 bc 8b e3 23 3c e9 38 eb bb
       -0.0026045523 -0.02158286 0.010002981 -0.007178415
0001f0 95 cf ac 3c 7e 5e 2b 3c 0d 23 97 bc 43 ec 99 3b
       0.021095077 0.01045954 -0.01844933 0.004697354
000200 e9 03 5d 3c 96 17 bb bc 7d 29 81 b9 b5 56 ee bb
       0.013489702 -0.022838395 -0.00024635709 -0.00727352
000210 04 c9 9f 3c ef 4e cd bc 92 9e 90 3c 00 ae 1f bc
       0.019505031 -0.025062053 0.017653737 -0.009746075
000220 ff 2d 26 3b df 65 db 3b c3 9a 41 3c c4 5d 6f 3c
       0.0025357006 0.0066954936 0.011816683 0.014609758
000230 e1 ed b8 bc 14 c4 b3 bc 95 3b 2c 3c 09 80 03 3b
       -0.022574367 -0.021944083 0.010512252 0.0020065329
000240 d4 0e 93 3c 76 3d ca bb d1 c3 a1 3a bb 77 d2 3b
       0.017951407 -0.0061718775 0.0012341683 0.0064229644
000250 61 0e 00 bc 0a 4a 6c 3c 14 4b ae bb d0 fa 9d 38
       -0.007815928 0.014421949 -0.0053190086 7.533061e-05
000260 5e 28 09 3b b2 53 f1 b9 9b 37 6e bc 5e 9d c8 3b
       0.0020928602 -0.0004602946 -0.014539625 0.0061222753
000270 b3 86 c2 bc 5e 95 3f 3c ae 43 2d bb 8f 4d e7 3b
       -0.02374587 0.011693327 -0.0026438045 0.0070588063
000280 12 80 1d 3b 8f 51 37 3c 01 47 16 3b 3e 47 9c bc
       0.0024032635 0.011188879 0.0022930505 -0.01907694
000290 ce 8c c8 bb 73 a1 db 3b 1e fc 72 3b 21 0d 5d 3c
       -0.006120301 0.006702596 0.0037076543 0.0134919
0002a0 2f 53 88 3c 2d f8 40 3c 87 9a b8 ba b7 b9 1a 3c
       0.016641228 0.01177792 -0.0014084139 0.009443692
0002b0 8b 72 09 bc 9e 62 ea bb a4 53 6c 3c 29 d3 a8 bb
       -0.008389126 -0.0071528694 0.014424238 -0.0051521254
0002c0 c8 2f 49 bc 0d 7c b5 bc 70 63 4c bc ef 7c 8e bc
       -0.012279458 -0.022153879 -0.01247488 -0.017393557
0002d0 ed ec ac bc c2 ff 2f 3c 7b c3 ac bc 01 ef 5b 3c
       -0.021109069 0.01074213 -0.021089306 0.013423682
0002e0 14 2a 93 bb 88 0f 32 bc 4c ed b9 3c 39 cf f3 ba
       -0.0044911 -0.010867961 0.02269616 -0.0018601186
0002f0 76 0c 85 3c c9 b1 57 bc 94 cf 8e bc d4 e0 4e bb
       0.016241293 -0.013164946 -0.017432965 -0.0031567113
000300 49 ef a6 bc a6 fa bc 3b 3b 8b bb 3c ad c4 ba 3c
       -0.020377772 0.0057671843 0.022893539 0.02279886
000310 f5 cb 08 3c 11 20 0e bc 48 ae 86 bc da fa 8f 39
       0.008349408 -0.008674637 -0.016440526 0.00027461984
000320 9a 32 dd bc 65 f1 4e 3c 57 af 11 bc a0 4a 76 3c
       -0.027001668 0.012630795 -0.008891902 0.01503244
000330 d2 aa 91 3c c9 7a 29 bc d1 88 fa bb dc c1 a5 3c
       0.017781649 -0.010344216 -0.0076457043 0.02023404
000340 f9 2f 63 bb 22 cd 25 3c f9 d4 94 bc a4 7f 58 3c
       -0.0034666045 0.010119708 -0.01816796 0.013214026
000350 12 5f a2 bb ab 18 b9 3b c0 d5 1d 3a d4 9d f9 3b
       -0.004955181 0.0056486926 0.0006020926 0.0076176915
000360 03 7b 2b bc 26 2c 5a 3c ca 00 9f bb 02 54 73 3c
       -0.01046634 0.01331619 -0.004852389 0.014851572
000370 9d ae 79 bb 6f 12 13 bc cc ac 17 3a 24 fa 4a 3c
       -0.0038098462 -0.008976563 0.00057859416 0.01238874
000380 e9 41 ab bc 68 05 c7 3b f9 a6 ad 3b 5a e9 18 bc
       -0.020905452 0.0060736425 0.0052994457 -0.009332979
000390 05 46 af bc d5 50 18 3c 6b 5c 52 3c 0e 52 07 3b
       -0.021395693 0.009296616 0.012839417 0.0020648274
0003a0 38 d9 bd 3b 1f 53 06 bc 24 c7 5e bc 2b 5e 97 3b
       0.0057937168 -0.008198529 -0.0135972835 0.00461938
0003b0 bf 30 6c bc 3c 6a 31 bc d4 12 bb bc 8d a5 08 3b
       -0.014415919 -0.010828551 -0.022836126 0.002085063
0003c0 0d 64 b1 3a 06 84 b4 bc 9e 20 03 bc 95 94 26 bc
       0.0013533846 -0.02203561 -0.008003382 -0.010167261
0003d0 86 d7 ed bb 04 14 5f 3c 4f 25 8b 3c 46 01 ad 3c
       -0.0072583584 0.013615612 0.016985564 0.021118771
0003e0 a7 d6 02 ba d4 c1 b6 bc f4 de 2f bc 85 ee b9 bc
       -0.0004991092 -0.022309221 -0.0107343085 -0.022696743
0003f0 72 a6 26 3b 82 0d 55 3c 1d a5 2b bc c6 e3 bf bc
       0.00254288 0.013003709 -0.010476378 -0.02342404

bias f4 [128]
000000 ea f5 01 b3 9d 0a 1d b5 93 5e 96 33 1d 11 34 b6
       -3.025881e-08 -5.85025e-07 7.002122e-08 -2.6832051e-06
000010 63 07 89 35 ff 64 e5 34 ce ce 74 30 cf 09 0a 34
       1.0209445e-06 4.2728058e-07 8.906057e-10 1.285582e-07
000020 c1 d4 81 9f 22 68 37 b5 24 6d 35 31 91 3f 82 2f
       -5.49856e-20 -6.8324346e-07 2.6401006e-09 2.369203e-10
000030 8d 8e 9e b5 f1 d3 28 b4 d6 89 5c b3 df a2 f1 2a
       -1.1813405e-06 -1.5723323e-07 -5.1348103e-08 4.2923214e-13
000040 48 9a 76 33 d1 92 e5 2e 0a fd 4f 30 2a c8 d6 31
       5.7416656e-08 1.0439794e-10 7.566575e-10 6.2509757e-09
000050 cc de ce 35 4e b0 64 af d2 2f de 32 1d 00 8c b2
       1.5413038e-06 -2.0799115e-10 2.5865948e-08 -1.6298197e-08
000060 b2 2d 89 b1 e4 58 07 34 ce ec 0a 35 a3 95 bc 2e
       -3.9924197e-09 1.2605193e-07 5.17536e-07 8.575831e-11
000070 12 05 a8 32 96 a5 20 35 f1 45 94 2f 3c 2b f4 28
       1.956008e-08 5.9845604e-07 2.697074e-10 2.7108192e-14
000080 c1 ae d7 b5 a7 04 d7 31 71 e7 4e 35 6c fa 14 b4
       -1.6069608e-06 6.2578525e-09 7.707777e-07 -1.3874677e-07
000090 ba a7 80 b5 17 ce 31 b5 a3 a8 db b4 f5 80 6e b6
       -9.585558e-07 -6.623754e-07 -4.0914628e-07 -3.5539827e-06
0000a0 91 e0 ea 34 76 78 b5 33 45 96 a3 2d 03 07 36 31
       4.374929e-07 8.450381e-08 1.8597688e-11 2.6488471e-09
0000b0 00 00 00 80 eb f5 10 35 00 00 00 00 50 83 4d 32
       -0.0 5.400204e-07 0.0 1.19624275e-08
0000c0 8b 2c 7d 34 bf f8 b2 35 99 0e 94 b2 26 b9 98 35
       2.3578666e-07 1.3334428e-06 -1.7236106e-08 1.1378768e-06
0000d0 b5 c0 c8 a7 6e 84 56 b6 d8 01 32 b3 71 be 2b b4
       -5.5720085e-15 -3.196557e-06 -4.144553e-08 -1.5994898e-07
0000e0 7f af 35 b6 0e cd 3e b3 c9 ec 5d b6 db 8e cf 31
       -2.7073254e-06 -4.442432e-08 -3.3069393e-06 6.0407337e-09
0000f0 8f 4a 11 33 54 bc 0a b5 41 77 5d b5 40 bd 66 a2
       3.3828254e-08 -5.168306e-07 -8.2502453e-07 -3.1271e-18
000100 47 04 19 b1 91 09 79 2b df 53 ca 34 58 38 6b af
       -2.2266862e-09 8.8475847e-13 3.7686456e-07 -2.1393143e-10
000110 00 00 00 80 d6 19 d6 b2 8f 49 6b 31 0f e6 4f b3
       -0.0 -2.4924628e-08 3.4238814e-09 -4.840518e-08
000120 00 00 00 00 aa 23 59 35 d7 b7 2a b3 18 03 ad b6
       0.0 8.08907e-07 -3.974841e-08 -5.156162e-06
000130 09 2e 76 af 21 fd b2 32 ac 2c e6 b4 50 07 37 30
       -2.2389925e-10 2.0837037e-08 -4.2873341e-07 6.6585404e-10
000140 3a f4 21 b4 04 63 01 af 45 b4 22 b4 a2 ee 51 b2
       -1.5083143e-07 -1.1767659e-10 -1.5153007e-07 -1.221966e-08
000150 b4 19 b3 34 c0 57 63 b5 87 cd ab b2 75 17 bb 21
       3.336005e-07 -8.469178e-07 -2.0000483e-08 1.2677822e-18
000160 0d 59 07 b6 f0 fc e0 34 e1 bc e2 31 36 20 32 b5
       -2.0168402e-06 4.1907288e-07 6.5989387e-09 -6.635704e-07
000170 2e 2c 86 b2 ad 4d 83 2f c6 33 84 a9 78 5b b8 b4
       -1.5619744e-08 2.3883953e-10 -5.870959e-14 -3.4339223e-07
000180 0b 65 c8 b5 74 9f 4b 33 61 be b4 b0 7a 4b 9c 30
       -1.4930569e-06 4.7409642e-08 -1.3150833e-09 1.1371946e-09
000190 c1 a3 8f b5 73 dc 2e b5 1f c8 92 b6 68 24 93 34
       -1.0701989e-06 -6.5140847e-07 -4.3744362e-06 2.7407373e-07
0001a0 a1 57 6f 31 e8 f4 25 34 00 00 00 80 95 f1 84 b5
       3.4828889e-09 1.5455919e-07 -0.0 -9.905076e-07
0001b0 d3 6b 39 35 07 9d 7d 34 a3 24 0c b5 a8 bc 87 b4
       6.9074775e-07 2.3619587e-07 -5.220738e-07 -2.5282975e-07
0001c0 62 a8 c6 1d 77 2b 4c 35 25 39 8e 34 12 ae 65 b3
       5.2584267e-21 7.605917e-07 2.649114e-07 -5.3476533e-08
0001d0 00 00 00 80 83 8c aa 35 2e 4a 22 b6 07 93 02 b7
       -0.0 1.2706881e-06 -2.418306e-06 -7.782836e-06
0001e0 99 a2 8b 35 c8 13 bb b4 a3 6f 12 b5 dd 42 c8 b5
       1.0403629e-06 -3.4845857e-07 -5.455169e-07 -1.4920621e-06
0001f0 6d c7 05 24 4b 40 c6 36 00 00 00 00 e7 f7 2b 36
       2.9008698e-17 5.9083445e-06 0.0 2.5625284e-06

weight f4 [2, 128]
000000 c0 1e c5 b9 bf 97 82 bb 41 5d 8d 3b d8 b7 71 bd
       -0.0003759768 -0.0039853747 0.0043140952 -0.059013218
000010 e9 38 27 bc 1e 27 4c bb 57 02 44 b8 75 e1 06 3c
       -0.0102064395 -0.0031151245 -4.673222e-05 0.008232464
000020 ec 70 8a 36 4f 20 b7 bc 1c dc c4 b8 15 ec 19 38
       4.1258663e-06 -0.022354273 -9.387007e-05 3.669791e-05
000030 d5 0a 83 3c 9d 51 57 bb 97 77 71 3a 92 fc 54 38
       0.015996376 -0.0032855042 0.00092112407 5.0779963e-05
000040 dc 1b 8a 3b 61 64 c5 37 c5 0d 06 39 bc a8 63 b9
       0.004214747 2.3530973e-05 0.00012784365 -0.00021711265
000050 ba 82 8d 3c c1 dd 6f 38 4e 0f 43 3b cd 35 13 39
       0.01727425 5.7188565e-05 0.002976376 0.00014039055
000060 72 cf af 38 ac d5 00 3c 2e 4e ba 3b c2 c3 3c b8
       8.38329e-05 0.007863443 0.0056855893 -4.5005007e-05
000070 67 ea bf 3a 3a f0 93 3c e0 f4 1a b9 ec 7e 75 b7
       0.0014642001 0.018058885 -0.00014777808 -1.4632689e-05
000080 96 6f eb 3b b4 22 15 39 ec a4 c2 bc 32 af d1 3a
       0.007184933 0.00014222675 -0.023760282 0.0015997647
000090 e0 de 58 bc 65 bd 0b 3c f3 b3 e5 3b fb cf 9a 3c
       -0.013236731 0.008529042 0.007009977 0.018898001
0000a0 ce e6 05 bc 94 d0 4d bb 51 48 1a 36 1b 93 b4 39
       -0.008172704 -0.003140484 2.2989882e-06 0.00034441878
0000b0 7f f4 bf 32 9c fe f9 bb 4f 90 36 2a cc f1 8f 3b
       2.234651e-08 -0.0076292288 1.6214914e-13 0.004392838
0000c0 c0 08 88 3b db a5 d0 bc 3d 3c 82 3c 3f be 53 bc
       0.0041514337 -0.025469711 0.015897864 -0.012923776
0000d0 3f f1 a7 b5 fd 9c 57 3c 90 23 65 ba 3c b3 6f bb
       -1.2512681e-06 0.0131599875 -0.0008740956 -0.0036575338
0000e0 fc 57 38 3c 5b 55 83 bb 7e 0c 99 3c d6 91 8d b9
       0.011251446 -0.004007978 0.018682715 -0.00027002272
0000f0 2d 4b 33 ba d2 3a af bb 10 29 b4 3b 56 52 0c b6
       -0.000683951 -0.005347588 0.005498059 -2.0909551e-06
000100 f8 ea a4 ba 86 cd 34 b8 08 eb 0f 3c a6 35 ca 38
       -0.0012582233 -4.3106753e-05 0.008784063 9.6421034e-05
000110 ed 80 d3 29 7a 65 5b 3a e5 97 ab 39 8e 9d 69 3b
       9.3926474e-14 0.0008369308 0.00032728832 0.0035646888
000120 0b 36 05 2a 45 76 03 bc 7f 8e fc ba 7d 98 8f 3c
       1.1831523e-13 -0.008023803 -0.0019268541 0.017528767
000130 a0 61 e6 b7 5f 02 63 3a 72 fc 38 3b 8c 19 eb 37
       -2.7463597e-05 0.0008659716 0.002822664 2.802608e-05
000140 e8 e1 79 3b 30 8b 0c b9 31 85 1a 3c 7c eb d5 b9
       0.0038129035 -0.00013403292 0.009431169 -0.00040801975
000150 79 43 8b bb 13 7c c2 3c 24 d1 95 ba 66 e8 30 38
       -0.0042499867 0.023740804 -0.0011430127 4.2178108e-05
000160 d0 d3 16 3c e8 34 22 3b a1 3a 53 39 3f 0b 4a bc
       0.0092057735 0.0024750773 0.00020144369 -0.012331783
000170 51 97 99 39 ed a5 5f 36 28 1f 2f 35 1b a2 0e bd
       0.00029295174 3.332617e-06 6.523792e-07 -0.034822565
000180 35 03 06 3c f1 8c d1 3a 91 d1 72 38 b2 7e 1a 3a
       0.008179476 0.0015987438 5.789247e-05 0.0005893513
000190 3c 72 02 bc 2d ce 4e 3c 29 1f 84 3c bf 18 eb 3a
       -0.007961806 0.012622398 0.01612814 0.0017936452
0001a0 87 8b 9f b8 19 eb f4 bb 8e e1 ed b3 fb c7 d4 bb
       -7.6077e-05 -0.007474315 -1.1077201e-07 -0.006493566
0001b0 8a bb d3 3b c6 cf f4 3c 74 d4 20 bd 87 7a 65 3b
       0.0064615654 0.02988423 -0.03926511 0.003501566
0001c0 5c b2 eb b6 ee 27 c9 3b 18 cd 41 3b f2 16 38 3c
       -7.0243095e-06 0.006138793 0.0029571708 0.011235939
0001d0 df 3d a8 29 b1 b2 e5 3b 68 26 ec bc 3b 20 be 3c
       7.4714316e-14 0.007009827 -0.028826907 0.023208728
0001e0 e2 db d4 bb 63 2d 4e 3b 38 e6 91 bc 1f f0 d3 bc
       -0.0064959386 0.0031460158 -0.017809972 -0.025871335
0001f0 44 5a c3 36 4d 77 c7 3c 3b ca 64 a9 ad 6c ab 3c
       5.821961e-06 0.02434888 -5.0801577e-14 0.020925844
000200 bc 1e c5 39 bd 97 82 3b 46 5d 8d bb d9 b7 71 3d
       0.00037597667 0.003985374 -0.0043140976 0.05901322
000210 ec 38 27 3c 1b 27 4c 3b 57 02 44 38 75 e1 06 bc
       0.010206442 0.0031151238 4.673222e-05 -0.008232464
000220 ec 70 8a b6 4f 20 b7 3c 1c dc c4 38 15 ec 19 b8
       -4.1258663e-06 0.022354273 9.387007e-05 -3.669791e-05
000230 d7 0a 83 bc 9f 51 57 3b 97 77 71 ba 91 fc 54 b8
       -0.01599638 0.0032855046 -0.00092112407 -5.077996e-05
000240 de 1b 8a bb 61 64 c5 b7 c3 0d 06 b9 bc a8 63 39
       -0.004214748 -2.3530973e-05 -0.00012784362 0.00021711265
000250 bb 82 8d bc c7 dd 6f b8 4f 0f 43 bb f1 35 13 b9
       -0.017274251 -5.7188587e-05 -0.0029763763 -0.00014039107
000260 6b cf af b8 ab d5 00 bc 31 4e ba bb c3 c3 3c 38
       -8.383285e-05 -0.007863442 -0.0056855907 4.500501e-05
000270 6a ea bf ba 3a f0 93 bc e0 f4 1a 39 eb 7e 75 37
       -0.0014642004 -0.018058885 0.00014777808 1.4632688e-05
000280 94 6f eb bb b7 22 15 b9 ed a4 c2 3c 32 af d1 ba
       -0.007184932 -0.0001422268 0.023760283 -0.0015997647
000290 e2 de 58 3c 64 bd 0b bc ef b3 e5 bb fd cf 9a bc
       0.013236733 -0.008529041 -0.007009975 -0.018898005
0002a0 cd e6 05 3c 97 d0 4d 3b 4f 48 1a b6 16 93 b4 b9
       0.008172703 0.0031404847 -2.2989877e-06 -0.00034441863
0002b0 b0 f4 bf b2 9b fe f9 3b 9c 6d 34 aa cd f1 8f bb
       -2.2346597e-08 0.0076292283 -1.602524e-13 -0.0043928386
0002c0 c0 08 88 bb dc a5 d0 3c 3b 3c 82 bc 3f be 53 3c
       -0.0041514337 0.025469713 -0.01589786 0.012923776
0002d0 3f f1 a7 35 01 9d 57 bc 95 23 65 3a 3e b3 6f 3b
       1.2512681e-06 -0.013159991 0.0008740959 0.0036575343
0002e0 f9 57 38 bc 60 55 83 3b 7c 0c 99 bc d7 91 8d 39
       -0.011251443 0.00400798 -0.01868271 0.00027002275
0002f0 2d 4b 33 3a d1 3a af 3b 10 29 b4 bb 55 52 0c 36
       0.000683951 0.0053475876 -0.005498059 2.090955e-06
000300 fa ea a4 3a 85 cd 34 38 06 eb 0f bc a4 35 ca b8
       0.0012582236 4.310675e-05 -0.008784061 -9.642102e-05
000310 1e db df a9 72 65 5b ba e5 97 ab b9 8c 9d 69 bb
       -9.9412e-14 -0.00083693035 -0.00032728832 -0.0035646884
000320 6e d5 64 a8 46 76 03 3c 7f 8e fc 3a 80 98 8f bc
       -1.2702823e-14 0.008023804 0.0019268541 -0.017528772
000330 9c 61 e6 37 5e 02 63 ba 74 fc 38 bb 8e 19 eb b7
       2.746359e-05 -0.00086597155 -0.0028226646 -2.8026083e-05
000340 f6 e1 79 bb 2f 8b 0c 39 36 85 1a bc 7c eb d5 39
       -0.0038129068 0.0001340329 -0.009431174 0.00040801975
000350 78 43 8b 3b 14 7c c2 bc 24 d1 95 3a 67 e8 30 b8
       0.0042499863 -0.023740806 0.0011430127 -4.217811e-05
000360 d0 d3 16 bc e8 34 22 bb 9f 3a 53 b9 3c 0b 4a 3c
       -0.0092057735 -0.0024750773 -0.00020144366 0.01233178
000370 50 97 99 b9 ed a5 5f b6 11 1f 2f b5 1b a2 0e 3d
       -0.0002929517 -3.332617e-06 -6.523779e-07 0.034822565
000380 37 03 06 bc e2 8c d1 ba 91 d1 72 b8 b4 7e 1a ba
       -0.008179477 -0.0015987421 -5.789247e-05 -0.0005893514
000390 39 72 02 3c 2f ce 4e bc 2c 1f 84 bc c1 18 eb ba
       0.007961803 -0.0126224 -0.016128145 -0.0017936454
0003a0 88 8b 9f 38 1f eb f4 3b 8e e1 ed 33 f9 c7 d4 3b
       7.6077005e-05 0.0074743177 1.1077201e-07 0.006493565
0003b0 8a bb d3 bb c8 cf f4 bc 75 d4 20 3d 80 7a 65 bb
       -0.0064615654 -0.029884234 0.039265115 -0.0035015643
0003c0 5a b2 eb 36 ed 27 c9 bb 18 cd 41 bb f1 16 38 bc
       7.0243086e-06 -0.0061387927 -0.0029571708 -0.011235938
0003d0 2b 4f 81 a9 b1 b2 e5 bb 65 26 ec 3c 3a 20 be bc
       -5.742484e-14 -0.007009827 0.028826902 -0.023208726
0003e0 e5 db d4 3b 5f 2d 4e bb 38 e6 91 3c 21 f0 d3 3c
       0.00649594 -0.0031460149 0.017809972 0.025871338
0003f0 44 5a c3 b6 51 77 c7 bc 64 26 d9 28 ae 6c ab bc
       -5.821961e-06 -0.024348887 2.4108489e-14 -0.020925846

bias f4 [2]
000000 45 82 2c 38 0a d0 27 b8
       4.112932e-05 -4.0009654e-05
